program/app/src/test/resources/transformer/_2021_06_eleuther_gptj/model.safetensors (safetensors, 9976 bytes, 15 tensors)

transformer.wte.weight f4 [10, 12]
000000 e2 a5 84 bb b2 e3 a0 3c ce 29 83 bb 68 18 29 bb
       -0.004048095 0.019639824 -0.0040027862 -0.00258019
000010 41 a0 e1 bb b5 d7 c9 3c 46 d9 96 3c 8f f5 ac bc
       -0.006885559 0.02463899 0.01841415 -0.021113185
000020 f6 ae 8c 3c 2f a5 11 bc 71 a4 64 3c f5 77 46 bc
       0.017173272 -0.0088894805 0.0139552215 -0.012113561
000030 33 67 8c 3a 33 3e 03 3c a7 7c 88 3a c4 5e 16 bc
       0.0010711908 0.008010435 0.0010413126 -0.009177867
000040 ab 2a 07 bc 5c 67 86 bb d5 7d 71 bc c9 58 b8 bc
       -0.008249919 -0.004101677 -0.014739473 -0.022503274
000050 9b 5d e6 ba aa 8c 83 3c b8 00 02 bb f0 47 81 3b
       -0.0017575504 0.016058285 -0.0019836854 0.003945343
000060 45 d0 b7 bb e4 0c b4 3b 62 13 d7 3b f9 58 b4 bc
       -0.0056095445 0.0054947007 0.00656359 -0.022015082
000070 3f 54 91 bc 60 93 b1 3b 82 ad d4 bb 6c b9 b5 bb
       -0.017740367 0.00541918 -0.0064904103 -0.0055457857
000080 3f 06 17 3b 6e e2 2d 3b 63 a0 bd bb 4b 11 06 bc
       0.0023044494 0.0026532668 -0.005786942 -0.008182834
000090 81 b8 77 bb 48 ad 06 3b e1 b8 af bc 62 2d 99 3c
       -0.0037799182 0.002055006 -0.021450462 0.018698398
0000a0 e8 9f a4 3b bb 47 86 bb 02 14 54 bc 0a da 01 3c
       0.005023945 -0.0040979064 -0.012944223 0.00792552
0000b0 7c ec 61 3c 44 1c 94 3b 40 0e f4 bb cb 47 50 bc
       0.013789292 0.004519971 -0.007447988 -0.012712429
0000c0 1c 7c 13 3c d2 20 19 3c fc c9 67 bc 73 1f bc 3a
       0.009001758 0.009346204 -0.014147278 0.0014352634
0000d0 63 48 b0 3b 3a 46 bd bc ed 60 05 bb 17 a4 6d bc
       0.005379723 -0.023104776 -0.0020351962 -0.014504454
0000e0 5a 33 33 ba 0a 8f cc 3c d4 48 cb 3c 20 1b a6 3b
       -0.000683596 0.02497055 0.024815 0.0050691515
0000f0 6c c1 a7 3c b2 7e 95 bb 5a 6e 29 bb 35 ff c6 3b
       0.020477973 -0.0045622224 -0.0025853128 0.0060729035
000100 03 7d b0 bb f2 32 6c 3a 66 a1 38 bb 7e e5 8b bc
       -0.0053859963 0.0009010277 -0.0028172373 -0.017077204
000110 30 30 55 bc e7 f6 bf bb 9a 08 52 bc 3c a7 95 bc
       -0.013011977 -0.0058582905 -0.012819434 -0.01826822
000120 83 9c 02 bb 6e ce 97 3b 88 3b 04 3c ed e2 8e 3c
       -0.0019929714 0.0046327626 0.008070834 0.017442191
000130 ee f8 ff 3c 85 e7 19 bc 06 ff 97 3b 4f 42 41 3b
       0.031246629 -0.009393577 0.0046385555 0.0029488986
000140 27 61 05 3c 8e c3 83 bc 33 7f 0a 3d a6 17 64 bc
       0.008140839 -0.016084459 0.033812713 -0.013921654
000150 37 22 8c ba be e0 d4 bb 03 86 c9 3b 53 56 bc 3b
       -0.0010691349 -0.006496518 0.0061500086 0.0057475953
000160 6d 03 a5 bb b0 a2 2c 3b 7a f9 36 3a 86 af 9d bb
       -0.005035809 0.0026342086 0.0006979924 -0.004812184
000170 e2 2b 01 3c 0b 29 8d bc f7 c7 07 bc 4b 52 d5 3c
       0.007883998 -0.017231485 -0.008287421 0.026040217
000180 45 05 81 bc 30 8d 6d bc 0d 78 83 bc bd 2b c0 3c
       -0.015749583 -0.014498994 -0.016048456 0.023458356
000190 c3 eb ce bc 92 20 88 bb b5 6b f9 3b 17 8f 29 3c
       -0.025258904 -0.0041542733 0.0076117166 0.010349057
0001a0 66 1f f4 3b 85 db 26 bc f3 27 2e 3c b7 92 82 3c
       0.007450032 -0.0101841735 0.010629642 0.0159391
0001b0 55 6d 53 3b f9 82 31 3c 92 df 96 3c 1b d6 b0 bb
       0.0032261212 0.010834449 0.018417154 -0.005396617
0001c0 ba 00 2e 3c 9d 3c 48 bc 27 48 bf 39 db d1 89 3c
       0.01062029 -0.012221483 0.00036484117 0.0168237
0001d0 1a ad 85 bb 3e d1 4f 3c e2 98 59 bc 01 18 1f 3c
       -0.004079473 0.012684165 -0.013281079 0.009710313

lm_head.weight f4 [10, 12]
000000 50 7a 1a 3d a5 61 47 bd d7 fc 84 3c 9d 91 3b 3c
       0.037714303 -0.048677105 0.016233845 0.011448291
000010 4f a1 35 ba 7b 0c f3 3c 37 dc bb bc 5b 8f 81 3c
       -0.0006928639 0.029669037 -0.022932155 0.015815428
000020 e6 61 fb 3b 5a 5a c7 3c 85 a5 21 bd b5 54 b8 b9
       0.0076715825 0.024335075 -0.039464492 -0.00035158327
000030 3b 75 d2 3b 30 ca 36 3c f6 47 17 bc 2a a8 3b bb
       0.0064226664 0.011156604 -0.009233465 -0.002863417
000040 74 3f 1a 3c 24 4d 78 bb 2b 24 0f 3c b3 88 30 bb
       0.0094145425 -0.0037887776 0.00873665 -0.0026936948
000050 69 40 ad bc a0 42 b7 3c 87 b9 1d bd bf 3a 31 3b
       -0.021148877 0.022370636 -0.03850701 0.0027043072
000060 6a 96 01 bd 44 b4 16 bc ef 30 61 3c b7 9f d0 3c
       -0.031637587 -0.009198252 0.013744577 0.025466783
000070 07 70 b2 3c 8c 06 20 bd f5 88 d1 3b 7d 32 d9 3c
       0.021781934 -0.039068744 0.0063945004 0.026513333
000080 b7 72 9d 3a 77 8c 42 3d 22 e9 ba bc 70 4a 2e 3d
       0.0012012337 0.04749724 -0.022816245 0.042551458
000090 20 35 b7 3a 4b a7 96 3c 34 ea 2b bb 16 58 a7 3b
       0.0013977624 0.018390318 -0.0026232125 0.005106936
0000a0 11 6f bf 3a 11 1d 32 3c fc 17 9c 3c 12 cf 80 3c
       0.0014605244 0.010871188 0.019054405 0.015723739
0000b0 02 87 89 3c 7e b8 dd 3c 81 fb 91 3c 70 f9 3e 3c
       0.01678801 0.027065512 0.017820122 0.01165615
0000c0 ca ac d0 bb 64 70 d5 3c 13 47 57 bc 50 1c 15 bc
       -0.0063682543 0.026054569 -0.013139504 -0.0091009885
0000d0 04 97 8d bc 05 68 42 bc 55 14 7c 3b 9e 07 92 3b
       -0.017283924 -0.0118656205 0.0038464267 0.0044564744
0000e0 93 6a 01 bd 65 ce b6 3c 04 4d c9 bc 5c 8b 8d 3c
       -0.031595778 0.022315213 -0.024572857 0.017278366
0000f0 61 45 fc 3c 9d d8 2d 3c 4a c0 fb ba b9 3c a4 3c
       0.030794801 0.010610727 -0.0019207087 0.020048486
000100 c3 a1 71 bc 59 ee e5 3c 81 b1 a8 39 92 15 e5 3c
       -0.01474804 0.028067755 0.00032175708 0.027964387
000110 88 0f 48 3b e4 93 56 3c 8e 50 28 3a cc 4e c6 ba
       0.0030526835 0.013096783 0.0006420695 -0.0015129684
000120 cc 9e de 3b 3d a1 6a 3a 07 63 5c bc 53 b4 fd 3c
       0.0067938324 0.0008950418 -0.013451344 0.030969774
000130 f5 e3 98 3b e7 4f f2 bc 98 fb 15 bd 8f 0f c1 3c
       0.0046658465 -0.029579116 -0.03661689 0.02356699
000140 60 6a 7a bc 0d ee 97 3a d6 1c 4e 3c a7 69 27 bc
       -0.015284151 0.001159133 0.012580117 -0.010218061
000150 5b e6 ce bc cb 86 dc 3c 3a b9 14 3b cd 0a 0c bc
       -0.025256326 0.026919743 0.0022693411 -0.008547497
000160 7c 70 c6 3c 9d a3 07 3b 1a 9c 06 bd c6 db 81 bc
       0.024223559 0.0020696886 -0.032863714 -0.015851866
000170 dc b7 c6 3b 8d b0 b7 ba 6a d5 c7 3c ec 10 04 bd
       0.006064398 -0.0014014408 0.024393756 -0.0322427
000180 bd 10 35 3c 61 94 d0 3c 7d 8a 19 3b fb d4 5d 3c
       0.011051354 0.025461378 0.0023428493 0.013539548
000190 a1 6d d6 3c c2 77 cf 3b bf 92 92 ba 15 96 61 3c
       0.026175322 0.006331415 -0.001118265 0.0137686925
0001a0 aa cd 04 bd 0a 08 80 bc 1e 78 b4 bc d7 ee 40 bc
       -0.0324227 -0.015628833 -0.022029933 -0.011775694
0001b0 54 91 ca ba 59 72 10 bc a9 bd 8f 3c 02 62 1c bd
       -0.0015454688 -0.008816325 0.017546492 -0.038179405
0001c0 6b 8a ff 3b 26 f5 da 3c 88 e3 9c bc 0b 40 42 b8
       0.007798483 0.026728224 -0.019151464 -4.631285e-05
0001d0 41 05 03 3d 8d e3 69 bc 60 b1 ca b9 78 11 bc 3c
       0.031987432 -0.014275444 -0.00038660597 0.022957548

lm_head.bias f4 [10]
000000 0d 30 c2 3d c4 dd 37 3e 85 ac bf 3d de 04 e8 3d
       0.09481821 0.1795569 0.09359077 0.11329053
000010 4c 34 b6 3d 46 ed ac 3d 89 8c 2a 3e e6 b4 2d 3e
       0.088966936 0.08443694 0.16655172 0.16963539
000020 14 2a 26 3e 92 a8 14 3e
       0.16226989 0.1451743

transformer.ln_f.weight f4 [12]
000000 dc 97 e7 3f 8b 1e cc 3f 43 76 e0 3f 14 c1 eb 3f
       1.8093219 1.5946821 1.7536091 1.8418298
000010 5a 97 e7 3f 5e f0 cb 3f 92 ab eb 3f 9e ee ea 3f
       1.8093064 1.5932729 1.8411734 1.835407
000020 cd 80 eb 3f d3 e2 e9 3f 2c 20 ef 3f ab 58 e8 3f
       1.8398682 1.8272346 1.8681693 1.8152059

transformer.ln_f.bias f4 [12]
000000 f5 d7 a1 3c 48 07 a0 bb 91 5d ed 3d b7 be 88 3d
       0.019756297 -0.0048836805 0.11590112 0.06677001
000010 43 54 20 3c bd b2 78 3d 74 18 14 3d 84 0c a1 3d
       0.009785715 0.060717333 0.036156133 0.07863715
000020 c4 2a 00 3d b9 76 8b bd a1 22 ac 3c 1e 5c f9 bc
       0.031290784 -0.06809754 0.021012606 -0.030439433

transformer.h.0.ln_1.weight f4 [12]
000000 1e 55 52 3f 03 9b 5e 3f dd 8b 56 3f 0d bd 59 3f
       0.8216113 0.8695528 0.83807164 0.85054094
000010 c6 9f 54 3f f7 f3 55 3f 22 76 4b 3f 9f a4 55 3f
       0.83056295 0.83575386 0.7947713 0.83454317
000020 70 f8 5a 3f a7 61 52 3f 7f 3f 57 3f 37 8a 59 3f
       0.85535336 0.82180256 0.8408126 0.84976524

transformer.h.0.ln_1.bias f4 [12]
000000 43 fb a7 3a b4 d3 9f bb 10 f6 a5 bb f9 6e 32 bc
       0.0012815971 -0.004877532 -0.0050647333 -0.010890716
000010 8c 1c 04 bc 75 5e e3 bb 15 85 2c 3c 5d cf 73 b9
       -0.008063447 -0.0069387504 0.010529776 -0.00023251535
000020 69 36 1d bc 89 54 06 bc 09 32 66 bb 94 fd fd ba
       -0.009595492 -0.008198866 -0.0035125038 -0.001937794

transformer.h.0.attn.q_proj.weight f4 [12, 12]
000000 93 15 63 bc 90 96 04 bb 28 db 9b 3c 66 bc 77 3d
       -0.013860124 -0.0020231344 0.0190254 0.060482405
000010 24 97 99 39 53 bf 9a bc 35 f0 ab bc b2 07 4a bc
       0.00029295043 -0.018890059 -0.020988563 -0.012330936
000020 78 ec 51 3d 05 cc e5 ba 3b d0 9d bc 34 49 f2 3b
       0.051250905 -0.0017532116 -0.019264331 0.0073939804
000030 da 84 19 bd e3 65 00 bc 6a 1a 81 bd 20 d7 c4 bc
       -0.037480213 -0.007836792 -0.06303866 -0.02402836
000040 11 ca da 3c f9 84 91 3c 58 8c 7a 3b ed d4 d3 3c
       0.02670768 0.017763602 0.0038230624 0.025858367
000050 be af 34 bc 41 b7 93 3c ce f3 b2 3b 97 6e 4b 3d
       -0.011028228 0.018031718 0.0054611927 0.049666014
000060 87 7f 54 3a 84 a5 9f bb e5 e6 3f 3c 2a 19 18 3d
       0.0008106161 -0.004872026 0.011712764 0.037133373
000070 34 5b 34 bd 4b 8b 91 bc a9 1e 90 3c bd 47 29 bd
       -0.04403229 -0.017766615 0.017592745 -0.04132818
000080 43 18 29 bc 2f 10 1e bc a8 34 2e 3a 72 d1 0c 3d
       -0.010320726 -0.009647413 0.00066454196 0.03437943
000090 ca 42 c2 bb 37 9c a8 bc 61 cb 8d 3c cb 5d ae 3c
       -0.005928372 -0.020582302 0.017308893 0.021284958
0000a0 cc 61 86 bc fa da 02 3c 56 3f 34 bc 64 98 e1 3b
       -0.016404055 0.007986778 -0.011001429 0.0068846215
0000b0 eb 58 08 bc f4 61 9f bb be ba 19 3c e9 7e 13 bb
       -0.008321981 -0.004863972 0.009382902 -0.0022506064
0000c0 a2 03 81 3c d2 ea b6 3b f1 57 58 3b a9 ca a1 3c
       0.015748803 0.005582192 0.0033011402 0.019749956
0000d0 05 df 2a 3d e8 99 de 3b 6b dd 0e 3d b6 cf 57 3c
       0.041716594 0.0067932494 0.03487913 0.013172081
0000e0 b2 da d7 3b 6c ea 23 bd 83 80 06 bc b7 fb 06 bb
       0.00658735 -0.040018484 -0.0082093505 -0.002059681
0000f0 c1 2d 02 bd 91 1b d2 3c b7 5c 68 bc f3 be 73 3c
       -0.031781916 0.02564791 -0.014182261 0.014877069
000100 e7 33 8e bb ca c2 90 3c d1 8f 93 bc ec 65 14 bc
       -0.0043396833 0.017671008 -0.018012913 -0.009057503
000110 78 71 4f 3c 85 b5 bf 3c bf c9 2c bc f8 88 58 bc
       0.01266133 0.023401985 -0.010546147 -0.01321625
000120 b8 bb 8c bc f8 2e 55 bd 88 93 39 bd 8e 2e 24 3d
       -0.017179355 -0.052046746 -0.045306712 0.04008346
000130 78 34 94 bb 32 d0 a1 3b 6b 9a 89 3c 04 c8 95 bb
       -0.0045228563 0.004938149 0.016797265 -0.004570963
000140 72 82 02 bb ec f4 3e 3c 9f 13 c5 bc 2b 40 a5 bb
       -0.0019914177 0.011655074 -0.024057208 -0.00504305
000150 15 8b a5 3c 33 e7 30 3c a7 68 a1 bb 03 9d 62 bc
       0.020207921 0.01079731 -0.0049258056 -0.01383138
000160 9c 92 a8 3b c2 98 cd bc d0 82 bd 39 bb a1 0e bc
       0.0051444303 -0.025097255 0.00036146352 -0.008705552
000170 1c 5b 7c 3c b5 95 de bc e2 f1 07 b7 dc cf bc 3c
       0.015402582 -0.027170995 -8.102945e-06 0.023048334
000180 77 1e 0f 3c 21 ff 5b 3b 01 d0 45 bc 58 44 30 3c
       0.008735291 0.0033568817 -0.012073518 0.010758482
000190 e4 80 7b bb ee 46 1c 3d 5d f7 cb ba 0a fd 23 bc
       -0.0038376385 0.03815358 -0.0015561391 -0.01000906
0001a0 0a f6 04 3d bb 5b 8f 3c ee c4 90 3c 58 4b 3f 3a
       0.032461204 0.017499795 0.017672028 0.0007297299
0001b0 27 8b d7 bc a1 3e b6 3b f3 0f a7 3c 0c 6c c9 bb
       -0.02631147 0.005561665 0.020393347 -0.0061469134
0001c0 46 02 2c bc d9 26 1c bd b6 d5 fd bc c1 ed 18 3b
       -0.010498589 -0.038122986 -0.030985694 0.0023335072
0001d0 00 eb 01 bb f4 c3 15 bc c9 9e 53 3c 01 5d ca 3c
       -0.0019823909 -0.009140957 0.012916275 0.02470255
0001e0 a9 e8 e9 3c 67 8e 99 bc 60 8b b0 3c 00 84 b9 36
       0.028553324 -0.01874466 0.021550834 5.5287965e-06
0001f0 54 20 c7 3c 8e 34 a6 3b 2e ef c4 3c 27 58 dd bb
       0.024307407 0.005072183 0.024039831 -0.0067548933
000200 96 81 8e bc 94 8a 99 bc ea ce 8a bc 63 ef 6e bc
       -0.017395776 -0.018742837 -0.016944367 -0.014583441
000210 07 49 92 bc f5 29 95 3c 21 67 ab 3c 23 ec 84 bc
       -0.017857088 0.018208483 0.0209232 -0.01622588
000220 2c 88 96 bb c9 3a 60 3c 8a 01 03 3d 86 ee bf bb
       -0.0045938697 0.0136858905 0.03198389 -0.0058572916
000230 a5 69 ec 3b 5a 97 b1 3c 1d 4c 24 3c 72 69 bc bb
       0.0072147422 0.021678615 0.010027912 -0.0057498747

transformer.h.0.attn.k_proj.weight f4 [12, 12]
000000 5a e5 06 bd a6 da c3 bc 56 a7 d1 3b 6b 22 9b 3b
       -0.03293357 -0.02390797 0.006398122 0.0047343276
000010 d8 b0 01 bd 2f 44 80 3b e2 1e cd bc fa a1 6b 3b
       -0.031662792 0.003914378 -0.02503914 0.00359547
000020 d6 70 4c 3d 69 65 9a bc 76 ef 55 bb c0 66 1a bd
       0.049912296 -0.018847184 -0.003264395 -0.037695646
000030 a8 c0 1a bd c9 8f f8 3b c4 3e 1d 3c 79 e3 ee ba
       -0.037781388 0.0075855 0.009597484 -0.0018225751
000040 da 60 1d bd af 69 7d 3c be ee 97 3c 40 0f 22 bc
       -0.038422443 0.015467091 0.018546458 -0.009891331
000050 3a 58 99 3a f6 f6 fd 3c c8 30 af 3c 46 64 56 bb
       0.0011699267 0.03100155 0.021385565 -0.0032713576
000060 3f ac 1d 3b 8d 9a 8a 3b ae 95 bc ba e2 4f 75 3c
       0.0024058966 0.0042298497 -0.001438787 0.014972659
000070 5b 9f a6 3c 31 21 cd bb 0a 73 cd 3c 9b 46 99 bc
       0.020339658 -0.0062600602 0.025079269 -0.018710425
000080 89 c1 80 bb a4 4f 8d bc ef 1d 57 3c 32 40 95 bc
       -0.003929321 -0.01724989 0.013129695 -0.018219087
000090 4e fa b8 bc ec cf 83 bb 2e 51 58 3c cd 49 68 3b
       -0.022580292 -0.004022589 0.0132029485 0.003544438
0000a0 2c d6 82 3c 40 12 0c bd cf 4c 91 3b 5c 2d 82 bc
       0.015971266 -0.034197092 0.004434205 -0.01589077
0000b0 9f be 6a 3c 48 7a 5c 3c b7 b5 ea 3b df d6 8c bc
       0.014327674 0.0134568885 0.0071627754 -0.017192302
0000c0 29 88 39 bc 83 eb 78 3c 14 7c 1a bd 83 3f be ba
       -0.011323967 0.015192869 -0.037715986 -0.0014514778
0000d0 72 69 00 3c ea a2 0c bb a3 c0 fe b9 64 97 9b 3c
       0.00783764 -0.002145941 -0.0004859018 0.018993087
0000e0 7a 41 38 bc 60 49 93 bb b1 ef ae 3c 74 f6 ed bb
       -0.01124608 -0.004494831 0.021354528 -0.0072620455
0000f0 06 f2 7e bc 71 5f 10 bc 7b de ce bb d1 8b 02 3c
       -0.015560633 -0.0088118175 -0.006313143 0.007967905
000100 9e e1 48 ba 9c f8 16 3d b6 9b 1c bc d2 23 ea 3c
       -0.0007663014 0.036858186 -0.009558609 0.028581534
000110 6f 65 94 3b 11 53 05 3c 64 b8 45 3c 66 b0 93 39
       0.0045286934 0.00813748 0.012067888 0.00028169452
000120 e5 36 d3 3b 2e 30 9a 3a eb 4b 64 3b 87 14 15 bc
       0.006445753 0.0011763626 0.003483529 -0.009099132
000130 b3 c9 15 3c ae f5 16 b9 d9 35 85 3c 25 77 4a bc
       0.009142327 -0.00014396638 0.016261028 -0.012357508
000140 52 89 ff bb 91 63 22 bd b4 0e 40 bd 28 cd 40 bc
       -0.0077983523 -0.039645735 -0.046889022 -0.011767663
000150 f7 46 05 3c 50 63 86 3c 27 6c b2 3c 12 d2 f6 3a
       0.008134595 0.016404778 0.021780087 0.0018830916
000160 9a 1c b1 bc eb 34 95 3b f9 d0 51 3c be 36 c5 bc
       -0.021620084 0.0045534275 0.012806171 -0.024073955
000170 b8 c2 b3 bc 7b 93 7d 3c 24 b6 a3 bc e2 4a 6a 3b
       -0.021943435 0.015477057 -0.019984312 0.00357502
000180 3b fc 96 bc 96 19 20 3c 65 97 98 bc 82 03 8f 3c
       -0.01843082 0.009771725 -0.018626878 0.017457727
000190 ed 76 13 bd 00 15 36 3c 17 0e 30 bb e3 7f 02 3d
       -0.03600209 0.011113405 -0.0026863867 0.031860244
0001a0 1a 30 0c 3d a1 f3 22 bc b9 f6 bc bb 35 49 ae bb
       0.03422556 -0.009945781 -0.0057667163 -0.0053187856
0001b0 32 fc bc bc 9c f0 06 3c 20 2e f9 3b 4e 72 1e 3d
       -0.023069475 0.008236077 0.0076043755 0.03868323
0001c0 2a 27 17 3c 17 89 d0 3b 14 b1 26 bc 93 31 40 ba
       0.009225646 0.0063639986 -0.010174055 -0.0007331606
0001d0 cd c7 25 bc a8 50 37 bb 61 9a 6f 3b 21 37 1d bc
       -0.010118437 -0.002797166 0.0036560523 -0.009595663
0001e0 65 f6 d9 bc 28 f9 eb 3c 1b 90 d9 3c 83 cd ba bc
       -0.026606748 0.02880533 0.026557973 -0.022803074
0001f0 e1 a1 44 bc b8 54 91 bc 6a 91 9c bb 7c f7 85 3c
       -0.012001486 -0.017740592 -0.004778077 0.016353361
000200 22 2c 79 3c a0 19 3d 3c fe 13 36 3c 92 6f ba bc
       0.015208276 0.011541754 0.011113165 -0.022758279
000210 97 2d 38 bb b5 a8 b7 3c c5 4c df 3c ca 3c 5a 3c
       -0.0028103346 0.022419313 0.027258286 0.013320157
000220 d9 18 f4 bb 20 00 ee 3b d4 20 a6 bb 4b 77 48 ba
       -0.007449251 0.0072631985 -0.0050698314 -0.00076471706
000230 ec d9 bc 3b 57 03 ed 3c a6 ab bf 39 b7 7b 8d 3c
       0.005763283 0.028932257 0.00036558247 0.017270906

transformer.h.0.attn.v_proj.weight f4 [12, 12]
000000 4c d4 9a 3b 09 7b 58 bb 85 91 af ba 3b e1 1a bc
       0.004725015 -0.003303232 -0.0013394809 -0.009453113
000010 dd 6f 7b 3b 7c d5 7d bc 8f 3e 40 3b d9 ee 87 3a
       0.0038366236 -0.015492793 0.0029334163 0.0010370865
000020 35 38 f5 3b ce 6a ef 3b 40 c0 06 bc 01 5e 51 bc
       0.007483507 0.0073064333 -0.008224547 -0.01277876
000030 0a ff 26 3c 62 fd 45 3c f1 92 83 bc 60 ce 1d bc
       0.010192642 0.012084337 -0.016061278 -0.009631723
000040 da fc 95 3c f9 8d af 3c 17 d1 22 3c 21 da 17 bc
       0.018309046 0.021430003 0.009937546 -0.009268315
000050 45 48 a7 3c 53 2f b1 3c eb f1 a2 bb b8 b7 f4 bb
       0.020420203 0.021629011 -0.0049726865 -0.00746819
000060 8a d2 d4 39 f7 ec 10 3c df 8f ef bb 87 5a 14 3c
       0.00040592655 0.008845559 -0.007310852 0.0090547865
000070 9f b3 a0 bc 88 2e 84 3c ce 62 0e 3d 31 1d 4a 3b
       -0.0196169 0.01613547 0.034762196 0.0030840153
000080 24 a8 da 3c 69 a1 8e 3c 46 8c ac 3c 1d 92 4b bc
       0.026691504 0.01741095 0.021062981 -0.012424973
000090 31 d8 90 3c fc 14 53 bb 8c 2c 0e 3b 0e e4 0f bc
       0.017681213 -0.0032208553 0.0021694032 -0.0087824
0000a0 92 41 86 3c 45 92 a2 3c 05 cb 04 bc 7f 04 d5 bb
       0.016388688 0.019845137 -0.008105044 -0.00650078
0000b0 03 b6 7a bc 2f ca 92 bb 19 dd a1 3c 2e 29 0c 3b
       -0.015302184 -0.0044796686 0.019758748 0.002138685
0000c0 55 80 0a 3c b2 8b 39 bb e8 65 81 bb 84 cc 98 b9
       0.008453448 -0.0028312025 -0.0039489157 -0.00029144075
0000d0 c9 fa 6d bc a7 ab 9f bc d5 14 66 3b 31 c6 87 ba
       -0.014525124 -0.01949103 0.0035107632 -0.0010358748
0000e0 65 87 e1 ba 68 32 bb bc ba 5d 66 bc 96 1c 74 3a
       -0.0017206488 -0.022851184 -0.014060432 0.0009312121
0000f0 1b 1b ad bc ef a0 08 bc c1 0b 0d bc 98 ac 52 bc
       -0.021131089 -0.008339151 -0.008608759 -0.012858532
000100 82 ca cd bb ad 8e a1 3c 9f dc da bb 78 0a a3 3b
       -0.0062802443 0.019721353 -0.006679132 0.004975613
000110 79 2e 89 bc 5a 6e 4b 3c c2 9f 37 bc 7a ac 87 bb
       -0.016745793 0.012416447 -0.011207523 -0.004140434
000120 87 20 75 3c c5 30 cd bb 1c 06 af 3b 2c d4 8b bc
       0.014961368 -0.0062619173 0.0053413045 -0.017068945
000130 62 fa 6b 3c 32 62 3b 3c df c3 3f 3a 59 fb 8d 3b
       0.014402958 0.011436986 0.0007315259 0.0043329415
000140 d1 a5 e9 ba 10 92 3f bc eb c3 56 3c 95 18 8f bc
       -0.0017825906 -0.011692539 0.013108234 -0.017467776
000150 bc 19 00 3b a2 f7 44 3b b8 a5 a9 3b d5 98 ee 3c
       0.001954659 0.0030054827 0.005177226 0.02912561
000160 f4 0d 82 bc 60 3c 0f bb 61 b0 02 3c a7 95 f1 3c
       -0.015875794 -0.0021856055 0.007976622 0.029490305
000170 aa 0e 7c bb 16 ed 88 bc 5d 3e 63 bc eb 6b 16 3b
       -0.003846089 -0.016714614 -0.013869849 0.0022952508
000180 4e 60 b2 39 df e4 63 bc 18 29 61 3b 7c 35 7c bc
       0.00034022558 -0.013909548 0.003435677 -0.015393611
000190 7a 7d 2f bd 0c 60 e3 bb 70 c6 b6 bc 0c d2 5b bc
       -0.042844273 -0.00693894 -0.02231142 -0.013416778
0001a0 32 c3 b4 ba b1 aa 79 3c 9c 91 4c 3c 95 4b 1b bc
       -0.0013791083 0.01523845 0.012485888 -0.009478469
0001b0 8d 04 5d 39 5a 96 16 3c 25 02 c2 bb 7e ad 34 3c
       0.00021077898 0.00919112 -0.005920666 0.011027692
0001c0 fe 93 87 bc 62 a0 84 3b f7 0e d5 3c 5e ce f7 bc
       -0.01655006 0.0040474394 0.026008112 -0.03024977
0001d0 85 23 63 3a 03 c3 ac bb 26 6d 42 bb 78 7d a5 bc
       0.00086646556 -0.0052722706 -0.0029667108 -0.02020143
0001e0 e2 9e 76 bb 7f c0 00 00 e9 ea 98 3c 49 62 a2 3b
       -0.0037631323 6.9055e-41 0.018666701 0.004955564
0001f0 f8 a7 0c 3c 39 d6 78 bb 90 0a 94 3c 57 1d 57 ba
       0.008584969 -0.0037969484 0.018071443 -0.0008205971
000200 ef 43 0c 3c 6b a4 7a 3c 3d 4a 7a bc 20 5e 86 3b
       0.0085611185 0.015297989 -0.015276489 0.004100576
000210 54 c5 6e 3b 8e ee 29 bc 7b 40 98 3a b0 cd 75 bc
       0.0036433535 -0.010371817 0.0011615896 -0.015002653
000220 8b 8c d3 bb 65 e9 4f bb a9 8a 6d bc 65 60 26 bc
       -0.006455963 -0.0031724807 -0.014498391 -0.010154818
000230 95 3d 45 3c 50 23 3e 3c 7b a7 70 bc d7 28 76 3c
       0.012038608 0.011605099 -0.014688368 0.015024385

transformer.h.0.attn.out_proj.weight f4 [12, 12]
000000 1b d1 e6 bb 09 8f e7 bb 7a bb 1c bc 17 88 3a bc
       -0.0070439703 -0.0070666117 -0.009566182 -0.011384985
000010 37 0b 26 bc ac 9b a1 bb 13 92 c5 3b 7a dd 2f bb
       -0.01013451 -0.0049318876 0.0060293763 -0.0026834891
000020 18 9b 39 3b f6 c7 3e bc cc a3 3e 3a 4f b5 77 bc
       0.0028321203 -0.011644354 0.00072723324 -0.015118911
000030 d3 a2 35 3c fa 9a fa bb 6e 8d 0e bc 5a 41 41 bb
       0.011086184 -0.007647869 -0.008700712 -0.0029488415
000040 e9 c9 b7 bc 15 bd e1 3b 3a ce be 3b 4c a6 cd bb
       -0.022435145 0.0068889954 0.005822924 -0.0062759276
000050 b4 54 ef bb 0d 32 2a bc 2f fe 8b 3c 7f c0 00 00
       -0.0073037986 -0.01038791 0.017088978 6.9055e-41
000060 37 3d 84 3c ed 97 93 bc 18 59 72 3b cf 45 08 bd
       0.01614247 -0.01801678 0.0036979374 -0.0332697
000070 f6 81 9f 3a b3 5b a1 bb 09 c1 25 bc da cd a8 3c
       0.0012169469 -0.0049242615 -0.010116824 0.02060597
000080 0b fc fa 3b 4d 16 4d bc c9 78 5b bc 0a 54 63 3c
       0.0076594404 -0.012517524 -0.013395497 0.013875017
000090 0d b4 ac bc af 22 59 bc 18 00 8c ba 52 27 c5 bb
       -0.021081949 -0.013252898 -0.001068118 -0.0060166502
0000a0 57 be 2c bd 09 09 21 bd 7a 52 60 3c a3 65 34 bc
       -0.04217371 -0.039315257 0.013691539 -0.01101056
0000b0 17 be 1d bc 7d 2b 26 bb c9 bd 40 bc 8c cd 28 bb
       -0.0096278405 -0.002535551 -0.011763998 -0.002575728
0000c0 4d fb 9f 3a 31 58 2c 3c 76 a7 f6 bb b2 2a 46 bc
       0.0012205631 0.010519073 -0.007527287 -0.01209514
0000d0 c7 6d 83 bc 59 86 34 bb be 7b d5 3c af e5 98 bc
       -0.016043557 -0.0027545898 0.026059981 -0.01866421
0000e0 b7 4d c0 bb fb 97 2e bc 1c fe 03 bd 87 b1 d2 bc
       -0.0058686393 -0.010656352 -0.03222476 -0.025719417
0000f0 1a e9 8b bb 9d aa 8b 3b 7b 10 70 3c 91 f9 c1 bb
       -0.004269731 0.004262282 0.014652367 -0.005919643
000100 bc 3a 8c 3c 16 49 a2 3c 3a 37 61 bb 82 ed 46 bb
       0.01711785 0.01981024 -0.0034365193 -0.0030353968
000110 12 21 3e bc 0f f2 8d bb d2 f5 08 3c 98 66 7c 3a
       -0.011604564 -0.004331834 0.008359389 0.0009628325
000120 2e 17 a6 3c 91 62 ee 3b 4c ac fa 3c a5 68 ca bb
       0.020274725 0.0072749336 0.030599736 -0.0061770254
000130 09 c4 b8 3a f6 b5 29 ba 31 cf 3b bc cc 55 39 3c
       0.0014096509 -0.00064739527 -0.0114629725 0.0113119595
000140 7f 6e 1f bc 4f 62 9e 3a 9c 5d 2a 3c f5 26 14 3c
       -0.009730934 0.0012083742 0.010398295 0.009042491
000150 a7 c6 1f 3c de 7f a6 3c 6b 88 8a bb 71 44 19 3c
       0.009751952 0.020324644 -0.004227688 0.009354697
000160 2a 82 0a 3b e8 51 ea ba 05 04 40 3b ae 6b fc 3b
       0.0021134713 -0.0017877193 0.002929927 0.007703266
000170 30 41 8d bc 9e 4e 9f bb 1a 8c 11 3c 18 c6 9b bb
       -0.017242998 -0.004861667 0.0088835005 -0.004753839
000180 50 39 90 bc e8 f8 f7 3a cd f2 c9 3b 50 c7 df bc
       -0.017605454 0.0018918784 0.0061629773 -0.02731672
000190 ec c5 ef 3b 89 49 78 ba 0a 7b 03 bc ba df 99 ba
       0.0073172953 -0.0009471407 -0.00802494 -0.0011739649
0001a0 63 fc 85 bc 35 a1 a3 bc 89 06 3f bc 15 5b b2 3c
       -0.016355699 -0.01997433 -0.011659273 0.021771947
0001b0 34 b9 11 bc 1f 31 31 bb 3c ea 7b bc 83 d8 8f bc
       -0.0088942535 -0.0027037335 -0.01537567 -0.017559296
0001c0 95 16 0d bd 23 11 b7 3c 41 92 c0 3b 39 4c 4a bc
       -0.034445364 0.022347039 0.00587681 -0.012347274
0001d0 bf 2a 40 bc 19 87 58 3c a6 00 fc 3c 26 7f 98 bc
       -0.011728941 0.013215804 0.030762028 -0.018615317
0001e0 03 f9 3b bc 5a d5 0f 3c 6f e8 20 bc aa 73 a5 bc
       -0.011472943 0.008778894 -0.0098210415 -0.020196754
0001f0 05 ea 84 3c 3d 05 2d 3c 11 20 17 3b 25 57 14 bc
       0.01622487 0.010560331 0.0023059885 -0.00905398
000200 f1 e4 fa ba 53 82 7c 3c a6 ef ff 39 2a a9 0a bd
       -0.0019141716 0.015411931 0.00048815942 -0.033852734
000210 c6 24 86 3c d3 3b 4e 3c df d9 59 3c 85 b1 6c 3c
       0.016374957 0.012587505 0.013296573 0.014446621
000220 61 b8 4b bb b8 32 24 3a 6f ee b7 bc dc 6f 22 3c
       -0.003108524 0.0006263661 -0.022452561 0.009914365
000230 8d dd 45 bc 24 50 12 3b f0 a2 8a 3c c4 4c 23 3b
       -0.012076748 0.00223256 0.016923398 0.0024917582

transformer.h.0.mlp.fc_in.weight f4 [48, 12]
000000 3b 3c 88 bc a9 b4 a5 bc a5 58 62 bc 23 b6 1e 3d
       -0.016630283 -0.020227747 -0.01381508 0.038747918
000010 78 80 57 bc 92 0f 66 3b ab b2 4b 3c 4e 02 95 3a
       -0.013153188 0.0035104495 0.0124327345 0.0011368485
000020 21 a2 a4 bb 1b 65 3b bb 1d ac 97 3c fa a1 1e 3c
       -0.00502421 -0.00285942 0.018514687 0.009682173
000030 b9 8a 9e bb 5b a5 38 3b cd f0 f5 3c 22 b3 8b bb
       -0.0048383144 0.0028174731 0.03002205 -0.0042632977
000040 05 42 5d bc 7b d2 43 b9 8e 86 4a b9 af 3f 88 3c
       -0.01350451 -0.00018675059 -0.00019314347 0.01663193
000050 f2 77 91 3a bc 45 18 bb 62 73 85 bc d2 42 3e bc
       0.0011098369 -0.0023234924 -0.01629037 -0.011612611
000060 7c f3 5b bb 60 c6 a0 bc 01 51 5f b9 a6 62 f5 bb
       -0.0033561876 -0.019625843 -0.00021297114 -0.0074885665
000070 2e c9 88 bb 50 53 43 3b c5 c6 b1 3b 72 4a 3b bc
       -0.004174373 0.0029804297 0.0054253065 -0.011431323
000080 65 da 86 bb fc ed 17 3c 78 d4 ab 3c 1c 9c af 3c
       -0.00411539 0.0092730485 0.020975336 0.021436743
000090 45 5c 9a 3c b2 4e b4 3a f2 ea d3 3a c1 58 b4 3b
       0.018842826 0.0013756363 0.0016168042 0.0055037444
0000a0 65 56 9c bb 3e 39 05 3c b2 4d 18 3d 98 1e 71 3c
       -0.004771041 0.008131323 0.03718347 0.014716767
0000b0 15 9a 42 3d c9 e5 cf 3c bc 8e 18 3c 5f 7f 08 3c
       0.047510225 0.025378125 0.009311374 0.008331149
0000c0 35 79 68 bc 37 7e 36 3b 39 36 11 bc cb 81 ec ba
       -0.014189054 0.0027846226 -0.008863025 -0.0018044052
0000d0 37 4a dd 3c ec 8d 3f 3c 0a ef e7 3c 93 9b ec ba
       0.027012927 0.011691552 0.028312225 -0.0018051736
0000e0 e0 2a 32 3c 53 88 98 bc 99 b8 9f bb 61 e4 6c bb
       0.01087448 -0.018619692 -0.0048743007 -0.0036146867
0000f0 4d a3 2f 3c 11 0e 48 bc 2a 58 44 3c 7f 0f 00 bc
       0.010720086 -0.012210385 0.011983911 -0.007816195
000100 20 46 e7 bc a2 3c cd 3c ba 11 ad ba f6 34 37 bc
       -0.02823168 0.025053326 -0.0013204135 -0.01118206
000110 ee 3c 40 3c 57 a2 00 bd cf c1 61 bc 11 b8 a6 3b
       0.011733277 -0.03140482 -0.013779118 0.0050878604
000120 7c c1 68 bc f5 17 85 bb 41 fd 0e bd eb ae 8e 3c
       -0.0142062865 -0.004061694 -0.03490949 0.017417392
000130 b0 9b 8c 3c 1c 7d 7f 3c c2 f7 4f bc 88 08 b4 bc
       0.017164081 0.015593793 -0.012693347 -0.021976724
000140 3a cb 28 3b f7 a6 d0 bc 0c d3 8d ba df 34 90 bc
       0.0025755898 -0.02547024 -0.0010820343 -0.017603336
000150 d1 e0 f0 3b c7 1d 7a 3c cc ef 80 3b 8a 8a ab 3c
       0.007351019 0.015265889 0.003934836 0.020940084
000160 2e 46 9f bc 00 35 cc bc 9c 35 7c 3c 17 4a 91 bc
       -0.019442644 -0.024927616 0.015393641 -0.017735524
000170 19 6a a8 3c ff 7a 30 bd f1 99 30 bc 2a 04 21 bc
       0.020558404 -0.04308605 -0.01077889 -0.009827653
000180 c0 bc a2 3c 62 bd 83 bc c7 2a ba 3b b6 76 6a bc
       0.019865394 -0.016081516 0.005681369 -0.014310529
000190 ba 75 f2 3b 60 c8 bc bc ce 21 a1 ba 5c 98 81 bb
       0.007399288 -0.023044765 -0.00122934 -0.00395493
0001a0 6c 36 ac bb fb cc 2d bc 85 5c 0e 3b bc 87 ee bb
       -0.005255511 -0.010607953 0.0021722626 -0.0072793644
0001b0 7a 28 87 3c b6 df 65 bc 3c 0b 55 bc 19 cf 0c 3c
       0.016498793 -0.014030388 -0.013003167 0.008594298
0001c0 b6 17 6b bc 21 7e 91 bc d9 95 83 3c aa d0 21 3b
       -0.014348915 -0.017760338 0.016062664 0.0024691024
0001d0 13 65 41 bc 96 13 7b 3c b7 4d 8c 3b 22 fd 36 ba
       -0.011803883 0.015324494 0.0042817253 -0.0006980469
0001e0 71 a3 4b 3c ec 41 e5 bb 3c 7a 08 bc 07 3f a0 bc
       0.012429104 -0.006996384 -0.008329924 -0.019561304
0001f0 ce cf 82 bb 93 6f 24 3d c6 a2 8b 3c f4 3a 74 3c
       -0.0039920574 0.040145468 0.01704539 0.014906634
000200 ce 27 83 3c f5 c2 d5 bb 7c 24 74 bc 07 55 9f bc
       0.016010191 -0.006523485 -0.014901277 -0.019449724
000210 0d 68 95 3c 9d a3 6d 3b 32 70 8a 39 20 2d 96 bc
       0.018238092 0.0036260851 0.00026405003 -0.018332064
000220 ad 9f a5 bc a5 e7 ab bc 9e 8f 87 bc 63 7a 8e ba
       -0.02021774 -0.02098448 -0.016547974 -0.0010870214
000230 28 e9 3f bc af 38 5c 3c d2 f7 f9 bb 13 91 81 3c
       -0.011713304 0.013441249 -0.0076284194 0.015816247
000240 49 ee 8a 3c d7 4b 37 3c 24 18 51 bc 28 8b 2b 3c
       0.016959326 0.011187515 -0.012762103 0.010470189
000250 15 2e 57 bc 78 69 2d ba b8 6f c6 bc 84 26 46 bb
       -0.013133545 -0.00066151423 -0.024223194 -0.003023536
000260 11 e7 c1 bb 2c 44 2a bb 2e e6 fa 3b da de de ba
       -0.005917438 -0.0025980575 0.007656834 -0.0017003671
000270 c5 19 91 3c 0d 73 c8 bc c0 de 6d bc a8 bd 92 3c
       0.017712483 -0.024468923 -0.01451844 0.0179127
000280 48 82 9a bb 0c 97 a6 3c d3 1a 96 bb b9 cf 48 bc
       -0.0047152378 0.020335697 -0.0045808344 -0.012256556
000290 4f 74 1d 3c 13 b4 74 bb a8 2f 5f 3c 80 a6 af bb
       0.00961025 -0.0037338778 0.013622202 -0.0053604245
0002a0 b0 3a b4 39 d7 df e6 ba a5 67 b1 bb 39 39 a4 bc
       0.00034376 -0.0017614317 -0.0054139667 -0.020046817
0002b0 55 d5 07 3c 59 6a 59 3c f5 38 d9 bb 2b 90 db 39
       0.008290608 0.013269984 -0.0066291043 0.0004187835
0002c0 2c 1f 3a bd 5d a7 e8 bc 91 4d a5 3b 7c 77 56 3c
       -0.045439884 -0.028400118 0.005044647 0.013090011
0002d0 d4 a2 86 bc a1 76 ae 3c 5e 90 3f bc 90 cb b7 3c
       -0.016435064 0.021296801 -0.011692135 0.022435933
0002e0 e8 0d 15 3b f7 ce 80 3b c1 31 dd bb 3b fc 36 3b
       0.0022743884 0.003930922 -0.006750316 0.0027921337
0002f0 1e fe 9d 3b 00 0a 9b bb 04 2e 69 bc 15 0f b4 ba
       0.004821553 -0.0047314167 -0.014232162 -0.0013737405
000300 1f 9f 8a 3c 70 3f 4b 3c 52 f5 8e bc 95 6e a4 bc
       0.016921578 0.012405261 -0.017450962 -0.02007226
000310 f0 36 cb 3c af f0 4a bc 47 0d 99 bb 7a fc 01 3b
       0.02480647 -0.012386485 -0.0046707722 0.0019834326
000320 f3 bf 02 3d 7f 4c 8d bc 7c 40 80 bb ba 0a 82 bc
       0.03192134 -0.01724839 -0.003913937 -0.015874255
000330 1b e6 4a bc 68 d4 5e 3c 11 85 1c bc 4c fd be bc
       -0.012383963 0.013600446 -0.00955321 -0.02331414
000340 eb 83 59 bb fc 9f d8 3c f3 9e f7 3b 5d a6 73 ba
       -0.0033190202 0.026443474 0.00755679 -0.00092945044
000350 02 79 2e bc ce 2d dd bb 2c 3f a8 bc af 81 ea 3b
       -0.010648968 -0.006749845 -0.020537935 0.007156573
000360 5a 55 22 bc fa 59 3e 3b e2 c9 96 bb 21 71 5d 3c
       -0.009908045 0.002904533 -0.004601703 0.013515742
000370 9f 10 21 bc 31 d5 20 39 c4 e2 13 3b 6b e2 1f 3d
       -0.009830623 0.00015338209 0.0022565583 0.03903429
000380 4b 46 c2 3c 22 e7 19 3c a2 de ee 3c 09 ad 20 bd
       0.023715159 0.009393485 0.029158894 -0.03922752
000390 95 4a ad ba 7c b5 0a bc 0d 49 10 3d aa f1 72 bc
       -0.001322108 -0.008466121 0.035225917 -0.014828125
0003a0 d4 53 c6 bc 48 fc 2b 3c 34 c2 59 b9 e3 5f 49 3d
       -0.024209894 0.01049716 -0.00020767079 0.04916371
0003b0 ce fb ca bc eb 23 2a 3c 62 de fc 3c 31 59 1d 3c
       -0.024778273 0.01038454 0.03086776 0.009603784
0003c0 0e b2 22 bc be 8a ef 3c bd fc 39 3b 86 55 bd 3a
       -0.009930147 0.029240962 0.0028379404 0.0014445044
0003d0 5d 9b bd 3c cf 10 66 3b bb c9 d3 3b b8 eb af 3c
       0.023145372 0.0035105234 0.006463257 0.021474704
0003e0 1b de b9 bc 3f 4d ed 3b af bb f0 3b 6d 4b 05 bb
       -0.022688916 0.0072418745 0.0073465924 -0.0020339147
0003f0 9c 46 32 bb f3 b2 8c bb 22 e5 de 3b 4e a9 98 bc
       -0.002720273 -0.0042937933 0.006802217 -0.018635418

transformer.h.0.mlp.fc_in.bias f4 [48]
000000 c2 79 70 bd 69 58 2f bd 66 62 5c bc d8 20 8f bd
       -0.058709867 -0.042808924 -0.013451194 -0.06988686
000010 90 a0 36 bd d6 b0 85 bd ee 7f 09 bd 88 2a 7e bd
       -0.044586718 -0.065278694 -0.03356927 -0.06205228
000020 d3 e3 3a bd 7e 5d 2a bd fe eb 3b bd 7c 9f 20 bd
       -0.045627426 -0.041593067 -0.045879357 -0.039214596
000030 85 d3 c9 bc 42 db 37 bd 46 3b 63 bd 57 a1 2a bd
       -0.024636993 -0.044886835 -0.05547645 -0.041657772
000040 d3 2a 6e bd e0 d6 69 bd 82 fd 50 bd 87 4d 20 bd
       -0.05814631 -0.057089686 -0.051023014 -0.039136436
000050 a0 3a 02 bd b9 a6 4d bd cd 8a 27 bd d5 97 55 bd
       -0.03179419 -0.050207827 -0.040903855 -0.05214675
000060 a9 14 10 bd d9 c8 a7 bc c6 68 0a bd fd 68 40 bd
       -0.035175953 -0.020481514 -0.033791326 -0.046975125
000070 bc c0 05 bd e1 49 0d bd 11 15 cf bc b7 4d 57 bd
       -0.03265451 -0.034494285 -0.0252786 -0.05256435
000080 bc ab 35 bd 13 93 50 bd 2b 8d f1 bc 45 c5 09 bd
       -0.04435323 -0.05092151 -0.02948626 -0.033635397
000090 c9 d7 30 bd c5 2c 3e bd 1c 51 41 bd d2 2f d2 bc
       -0.04317454 -0.046429414 -0.047196493 -0.025657568
0000a0 d8 20 f3 bc 55 a2 0d bd 10 1e ed bc ef 54 d6 bc
       -0.029678747 -0.03457864 -0.028944999 -0.026163546
0000b0 91 b0 cd bc 1f 0d 4e bd bd 9c 6a bd 4f a1 5c bd
       -0.025108607 -0.050305482 -0.057278384 -0.053864773

transformer.h.0.mlp.fc_out.weight f4 [12, 48]
000000 38 ad 2f bb 53 b2 ad 3b 88 c3 6d bb 25 92 9c bb
       -0.0026806127 0.005300799 -0.0036279876 -0.004778164
000010 3d 74 30 3a cf 66 e6 3c 91 4c a7 3a 25 df 8c 3c
       0.0006731188 0.028125195 0.0012763907 0.017196247
000020 eb 21 1c bc 07 86 78 3c e7 56 c7 3a ac f0 b3 bb
       -0.009529571 0.015168673 0.0015208394 -0.005491337
000030 fa 11 af 3b 04 3a 8c bb 30 bc 71 bc d4 1f 47 3c
       0.005342719 -0.004279377 -0.01475434 0.0121535845
000040 7d a5 96 bb 4e 4e 62 b9 5e b3 06 3c 0d 8d e7 3b
       -0.0045973645 -0.0002158221 0.008221475 0.007066375
000050 e5 d7 a0 3b cc 92 2a 3c ce 8f 4e 3c 98 74 5a bc
       0.004908549 0.010410976 0.012607528 -0.013333462
000060 ea 7a 2a bc c7 4a 00 bc 68 a6 f7 3b 69 ca 96 3a
       -0.010405282 -0.007830328 0.007557679 0.0011504415
000070 f4 0d 3a 3b ea 1d 8e 3b 45 1f a5 bb 80 5d 84 bb
       0.0028389664 0.004337062 -0.005039128 -0.0040394664
000080 67 56 c8 3b 1a 70 a7 3b 51 6a fd ba b6 20 3e 3b
       0.0061138156 0.005109799 -0.0019334053 0.0029011196
000090 18 e9 9c ba 89 e0 4d 3c 52 99 a1 3c 07 6f b2 ba
       -0.0011971323 0.01256574 0.01972643 -0.0013613411
0000a0 53 47 1c 3c 1f e5 e9 bb c9 3b c4 ba 32 ff 15 3c
       0.009538489 -0.007137909 -0.0014971431 0.009155082
0000b0 8c 6b d0 bb f2 81 5b bc dd 0d 42 3b 8a c3 d5 3c
       -0.006360477 -0.013397681 0.0029610314 0.026094217
0000c0 d4 5f e2 3c 05 4b fb 3b e8 ba 97 bb 42 bc 1b bc
       0.027633585 0.007668855 -0.0046304353 -0.009505333
0000d0 51 34 da ba 7f 1d 49 bb 3b 94 a9 bb 47 6d 97 3b
       -0.0016647672 -0.0030687747 -0.005175141 0.004621181
0000e0 da 48 7d 3b 9e dc 8d 3b 20 06 4f bc 52 eb 60 bb
       0.003864816 0.004329278 -0.012635738 -0.003431995
0000f0 53 bb 1d 3c 23 ba 7f 3b 5d 29 23 bc 3c 11 d6 ba
       0.009627181 0.0039020858 -0.009958592 -0.001633204
000100 24 59 46 b9 76 a5 45 3c 0f ff a1 3c fd 7a 36 3b
       -0.00018915959 0.012063375 0.019774942 0.0027844303
000110 b8 c6 0c bc 42 21 c9 bc 63 d0 78 bb c8 8b ae 3b
       -0.0085923 -0.024551991 -0.0037966005 0.005326722
000120 21 4e 34 3c fd 09 66 3c 2d b8 00 3c 55 57 ce bb
       0.0110049555 0.014040467 0.007856411 -0.006297032
000130 49 ab 92 3b ef 0f 94 bb 58 46 c5 bb 76 d1 40 3b
       0.004475985 -0.004518501 -0.0060203485 0.0029421723
000140 4e 5e 30 3b 65 93 46 3b 2e 09 3c 3c 8d 2c 43 3c
       0.0026911679 0.0030300256 0.011476798 0.011912477
000150 60 14 cd 3a 89 ec d2 bb 5f a7 7b bb 46 8b 1b 3b
       0.0015646331 -0.0064368886 -0.0038399321 0.0023734136
000160 65 90 98 3b c6 bf d2 3b 52 4f d8 39 f5 7f 07 bc
       0.004655885 0.0064315526 0.0004125783 -0.008270253
000170 88 ec 63 3b 94 5b 07 3d 8a 04 8b ba 9c ee 55 bc
       0.0034778435 0.03304632 -0.0010606211 -0.013057377
000180 87 1c 4e bc 8a dc aa 3b 22 bc 29 bc 6b 60 86 3b
       -0.012580044 0.0052142786 -0.010359796 0.0041008494
000190 bc cd 0e b9 b6 a1 2d 3c 25 11 09 bc 72 63 1a 3c
       -0.00013618817 0.010597637 -0.008365904 0.009423124
0001a0 2f ad a3 bb 6b a6 3b 39 0d 81 6c bb 57 84 29 bc
       -0.0049950103 0.00017895705 -0.0036087662 -0.010346494
0001b0 c0 2a 9d 3b ef fb a2 ba 4b bf 9b bb b1 a2 81 ba
       0.004796356 -0.0012434701 -0.0047530285 -0.0009890405
0001c0 6c 39 22 3c 13 99 8d 3b 5d 62 3b 3b 89 5f 55 3c
       0.009901386 0.0043212264 0.0028592565 0.013023266
0001d0 0b d1 e3 bb cb 4b 63 bc 3c 67 39 ba cf 67 cf 3b
       -0.00695241 -0.013873051 -0.0007072573 0.0063295136
0001e0 2f 63 da 3b 04 38 ee 3a 8c 1c e5 bb 55 13 c1 bb
       0.0066646556 0.0018174653 -0.0069919284 -0.005892197
0001f0 39 96 75 3c 9e 5e 20 3c 04 b9 03 bc 25 3f 3c 3c
       0.014989429 0.0097881835 -0.008039717 0.011489664
000200 51 12 08 3c 7d 3c 76 3b e7 80 a3 3b fb 9b 5a 3c
       0.008305148 0.0037572675 0.0049897316 0.013342853
000210 4a 58 b7 3a dc f9 32 3b ed 5d f6 3b 5a 23 55 3c
       0.0013988104 0.0027309572 0.007518521 0.013008917
000220 f0 5e 1c 3c 33 63 81 3c d7 e5 83 3a c2 9b 02 bb
       0.009544119 0.015794372 0.0010063004 -0.0019929265
000230 9f 9c a1 3b ed 98 e9 3c a0 c4 4b 3b cb 85 2c 3c
       0.004932001 0.028515304 0.003109254 0.010529946
000240 2b 9c 94 b9 d3 9b 70 3c 06 bd 66 bb 5d 41 9b 3a
       -0.00028345114 0.014685589 -0.0035207882 0.0011845041
000250 a7 a4 86 3b 44 6f 30 bc 7b b8 f8 3b c2 10 8e 3c
       0.0041089836 -0.010768715 0.007590351 0.017341975
000260 d0 90 cc bb d7 b5 20 bb 5c 42 9f 3a 73 15 af bb
       -0.006242849 -0.0024522447 0.0012150514 -0.005343133
000270 53 7a 88 ba 72 3e e2 bb 9b 83 47 bc 28 17 4e 3c
       -0.0010412432 -0.0069044167 -0.012177373 0.012578763
000280 92 ff 6e 3c b9 15 c6 3b 7c 15 f2 bb d9 04 25 3b
       0.0145873 0.00604507 -0.007387815 0.0025179891
000290 9b 32 c2 3b e5 37 87 3c df 77 4d 39 17 e4 0a 3c
       0.005926443 0.016506145 0.00019594979 0.008477232
0002a0 3e 81 a9 3c 13 7d 1b 3b 8a f3 05 bc cb 22 33 3c
       0.02069151 0.0023725673 -0.00817574 0.010933588
0002b0 f4 7b f6 ba 60 58 60 3b 25 ee 7f 3c 9f 95 83 3c
       -0.0018805251 0.0034232363 0.015620743 0.016062556
0002c0 6c 86 eb bb d2 de 77 bc 81 8b f3 b9 c0 2a be 3c
       -0.007187655 -0.015128808 -0.0004645251 0.023213744
0002d0 29 4a b9 38 3b 4a cf 39 d8 6b 11 3c b6 2b 4e bc
       8.835301e-05 0.00039537423 0.00887581 -0.012583664
0002e0 a9 95 92 3b f7 48 5a 3a 5c 7a 12 bb d5 67 0c 3c
       0.0044734073 0.00083269126 -0.0022350764 0.008569677
0002f0 fa 09 8a 3c 8f 89 11 3c 85 f0 9d bc d2 05 15 bb
       0.01685046 0.008882894 -0.019279728 -0.0022739065
000300 0c 29 f8 3b 80 dc a1 3c ae be 45 3c 81 7c e3 bc
       0.0075732525 0.019758463 0.012069387 -0.027769329
000310 8f 09 67 3c 64 91 10 3c a5 8d 2c b9 b0 c7 e6 bb
       0.0141014 0.008823726 -0.00016455965 -0.0070428476
000320 13 35 94 bb 36 ca 0b 3c 24 d3 68 3c 03 b4 b5 bb
       -0.0045229285 0.008532098 0.014210496 -0.0055451407
000330 1d 66 61 3c c2 db 85 bb 29 34 3d b9 24 bd b8 3c
       0.013757256 -0.004085035 -0.00018043876 0.022551127
000340 1a 61 8b bb a2 49 2b 3c 5c 20 0b 3b a0 69 2b 3b
       -0.004253519 0.010454567 0.0021229004 0.0026155487
000350 98 9d 36 bc 29 52 ac bc b0 c1 2a bb b0 57 18 bb
       -0.011145972 -0.02103527 -0.0026055388 -0.0023245625
000360 c6 86 50 bc 87 91 c2 3a 9f 90 d3 bc 0c 83 a0 3b
       -0.012727445 0.0014844396 -0.025825797 0.0048984345
000370 f0 3f 49 3b 2a 6f e0 bb 5c 7b 47 bb ca 9e 01 bc
       0.0030708276 -0.0068491893 -0.0030438518 -0.007911393
000380 98 ef 72 3c f0 b2 09 bc 63 d1 14 3c fa 4a 12 3a
       0.014827631 -0.008404478 0.009083125 0.00055806304
000390 50 4c 20 3b 32 c3 c5 3b e0 32 39 bc 53 eb 02 bc
       0.0024459548 0.006035232 -0.011303633 -0.007990676
0003a0 62 63 c6 39 eb d8 97 3a 28 6c 8f 3b cb df ea bc
       0.0003783955 0.0011585032 0.004376907 -0.028671166
0003b0 d9 94 59 3b d3 0e 45 3b 49 54 e1 bc 5f 62 d4 bb
       0.0033200292 0.003006865 -0.02750601 -0.0064814533
0003c0 5b b5 93 bc 28 b0 88 bc 33 3b 8c 3b 2a a4 fc 3a
       -0.018030813 -0.01668556 0.004279518 0.0019274999
0003d0 a5 7d 0a 3c 6f 9f 1d bc 19 c8 2b 3c 62 58 7f 3c
       0.008452808 -0.009620531 0.010484719 0.015585037
0003e0 43 b7 8d 3c cc 39 de bc 87 17 11 bc f5 2c 43 ba
       0.0172993 -0.02712717 -0.008855707 -0.0007445359
0003f0 d4 05 b3 3b 96 2d eb 3a 43 4b 8a 3c e6 64 20 bc
       0.0054633413 0.0017942663 0.01688159 -0.009789681

transformer.h.0.mlp.fc_out.bias f4 [12]
000000 07 84 0d be ba 85 b9 bd 69 22 95 3e 07 f1 00 3d
       -0.13819896 -0.090587094 0.29127815 0.03147986
000010 1a 03 d2 3e ff 32 18 3e 69 0c ac be df 69 4d be
       0.4101799 0.14863203 -0.33603218 -0.20059918
000020 d4 88 a3 3e 7e 41 ee 3d 72 04 e3 bd 2c 50 16 3e
       0.3194033 0.116335854 -0.11084832 0.1467902
