program/app/src/test/resources/transformer/_2021_06_eleuther_gptj/test.safetensors (safetensors, 4444 bytes, 10 tensors)

transformer.h.0.attn.q_proj.weight f4 [12, 12]
0	0xbc631593	-0.013860124
1	0xbb049690	-0.0020231344
2	0x3c9bdb28	0.0190254
3	0x3d77bc66	0.060482405
4	0x39999724	0.00029295043
5	0xbc9abf53	-0.018890059
6	0xbcabf035	-0.020988563
7	0xbc4a07b2	-0.012330936
8	0x3d51ec78	0.051250905
9	0xbae5cc05	-0.0017532116
10	0xbc9dd03b	-0.019264331
11	0x3bf24934	0.0073939804
12	0xbd1984da	-0.037480213
13	0xbc0065e3	-0.007836792
14	0xbd811a6a	-0.06303866
15	0xbcc4d720	-0.02402836
16	0x3cdaca11	0.02670768
17	0x3c9184f9	0.017763602
18	0x3b7a8c58	0.0038230624
19	0x3cd3d4ed	0.025858367
20	0xbc34afbe	-0.011028228
21	0x3c93b741	0.018031718
22	0x3bb2f3ce	0.0054611927
23	0x3d4b6e97	0.049666014
24	0x3a547f87	0.0008106161
25	0xbb9fa584	-0.004872026
26	0x3c3fe6e5	0.011712764
27	0x3d18192a	0.037133373
28	0xbd345b34	-0.04403229
29	0xbc918b4b	-0.017766615
30	0x3c901ea9	0.017592745
31	0xbd2947bd	-0.04132818
32	0xbc291843	-0.010320726
33	0xbc1e102f	-0.009647413
34	0x3a2e34a8	0.00066454196
35	0x3d0cd172	0.03437943
36	0xbbc242ca	-0.005928372
37	0xbca89c37	-0.020582302
38	0x3c8dcb61	0.017308893
39	0x3cae5dcb	0.021284958
40	0xbc8661cc	-0.016404055
41	0x3c02dafa	0.007986778
42	0xbc343f56	-0.011001429
43	0x3be19864	0.0068846215
44	0xbc0858eb	-0.008321981
45	0xbb9f61f4	-0.004863972
46	0x3c19babe	0.009382902
47	0xbb137ee9	-0.0022506064
48	0x3c8103a2	0.015748803
49	0x3bb6ead2	0.005582192
50	0x3b5857f1	0.0033011402
51	0x3ca1caa9	0.019749956
52	0x3d2adf05	0.041716594
53	0x3bde99e8	0.0067932494
54	0x3d0edd6b	0.03487913
55	0x3c57cfb6	0.013172081
56	0x3bd7dab2	0.00658735
57	0xbd23ea6c	-0.040018484
58	0xbc068083	-0.0082093505
59	0xbb06fbb7	-0.002059681
60	0xbd022dc1	-0.031781916
61	0x3cd21b91	0.02564791
62	0xbc685cb7	-0.014182261
63	0x3c73bef3	0.014877069
64	0xbb8e33e7	-0.0043396833
65	0x3c90c2ca	0.017671008
66	0xbc938fd1	-0.018012913
67	0xbc1465ec	-0.009057503
68	0x3c4f7178	0.01266133
69	0x3cbfb585	0.023401985
70	0xbc2cc9bf	-0.010546147
71	0xbc5888f8	-0.01321625
72	0xbc8cbbb8	-0.017179355
73	0xbd552ef8	-0.052046746
74	0xbd399388	-0.045306712
75	0x3d242e8e	0.04008346
76	0xbb943478	-0.0045228563
77	0x3ba1d032	0.004938149
78	0x3c899a6b	0.016797265
79	0xbb95c804	-0.004570963
80	0xbb028272	-0.0019914177
81	0x3c3ef4ec	0.011655074
82	0xbcc5139f	-0.024057208
83	0xbba5402b	-0.00504305
84	0x3ca58b15	0.020207921
85	0x3c30e733	0.01079731
86	0xbba168a7	-0.0049258056
87	0xbc629d03	-0.01383138
88	0x3ba8929c	0.0051444303
89	0xbccd98c2	-0.025097255
90	0x39bd82d0	0.00036146352
91	0xbc0ea1bb	-0.008705552
92	0x3c7c5b1c	0.015402582
93	0xbcde95b5	-0.027170995
94	0xb707f1e2	-8.102945e-06
95	0x3cbccfdc	0.023048334
96	0x3c0f1e77	0.008735291
97	0x3b5bff21	0.0033568817
98	0xbc45d001	-0.012073518
99	0x3c304458	0.010758482
100	0xbb7b80e4	-0.0038376385
101	0x3d1c46ee	0.03815358
102	0xbacbf75d	-0.0015561391
103	0xbc23fd0a	-0.01000906
104	0x3d04f60a	0.032461204
105	0x3c8f5bbb	0.017499795
106	0x3c90c4ee	0.017672028
107	0x3a3f4b58	0.0007297299
108	0xbcd78b27	-0.02631147
109	0x3bb63ea1	0.005561665
110	0x3ca70ff3	0.020393347
111	0xbbc96c0c	-0.0061469134
112	0xbc2c0246	-0.010498589
113	0xbd1c26d9	-0.038122986
114	0xbcfdd5b6	-0.030985694
115	0x3b18edc1	0.0023335072
116	0xbb01eb00	-0.0019823909
117	0xbc15c3f4	-0.009140957
118	0x3c539ec9	0.012916275
119	0x3cca5d01	0.02470255
120	0x3ce9e8a9	0.028553324
121	0xbc998e67	-0.01874466
122	0x3cb08b60	0.021550834
123	0x36b98400	5.5287965e-06
124	0x3cc72054	0.024307407
125	0x3ba6348e	0.005072183
126	0x3cc4ef2e	0.024039831
127	0xbbdd5827	-0.0067548933
128	0xbc8e8196	-0.017395776
129	0xbc998a94	-0.018742837
130	0xbc8aceea	-0.016944367
131	0xbc6eef63	-0.014583441
132	0xbc924907	-0.017857088
133	0x3c9529f5	0.018208483
134	0x3cab6721	0.0209232
135	0xbc84ec23	-0.01622588
136	0xbb96882c	-0.0045938697
137	0x3c603ac9	0.0136858905
138	0x3d03018a	0.03198389
139	0xbbbfee86	-0.0058572916
140	0x3bec69a5	0.0072147422
141	0x3cb1975a	0.021678615
142	0x3c244c1d	0.010027912
143	0xbbbc6972	-0.0057498747

lm_head.bias f4 [10]
0	0x3dc2300d	0.09481821
1	0x3e37ddc4	0.1795569
2	0x3dbfac85	0.09359077
3	0x3de804de	0.11329053
4	0x3db6344c	0.088966936
5	0x3daced46	0.08443694
6	0x3e2a8c89	0.16655172
7	0x3e2db4e6	0.16963539
8	0x3e262a14	0.16226989
9	0x3e14a892	0.1451743

transformer.h.0.attn.k_proj.weight f4 [12, 12]
0	0xbd06e55a	-0.03293357
1	0xbcc3daa6	-0.02390797
2	0x3bd1a756	0.006398122
3	0x3b9b226b	0.0047343276
4	0xbd01b0d8	-0.031662792
5	0x3b80442f	0.003914378
6	0xbccd1ee2	-0.02503914
7	0x3b6ba1fa	0.00359547
8	0x3d4c70d6	0.049912296
9	0xbc9a6569	-0.018847184
10	0xbb55ef76	-0.003264395
11	0xbd1a66c0	-0.037695646
12	0xbd1ac0a8	-0.037781388
13	0x3bf88fc9	0.0075855
14	0x3c1d3ec4	0.009597484
15	0xbaeee379	-0.0018225751
16	0xbd1d60da	-0.038422443
17	0x3c7d69af	0.015467091
18	0x3c97eebe	0.018546458
19	0xbc220f40	-0.009891331
20	0x3a99583a	0.0011699267
21	0x3cfdf6f6	0.03100155
22	0x3caf30c8	0.021385565
23	0xbb566446	-0.0032713576
24	0x3b1dac3f	0.0024058966
25	0x3b8a9a8d	0.0042298497
26	0xbabc95ae	-0.001438787
27	0x3c754fe2	0.014972659
28	0x3ca69f5b	0.020339658
29	0xbbcd2131	-0.0062600602
30	0x3ccd730a	0.025079269
31	0xbc99469b	-0.018710425
32	0xbb80c189	-0.003929321
33	0xbc8d4fa4	-0.01724989
34	0x3c571def	0.013129695
35	0xbc954032	-0.018219087
36	0xbcb8fa4e	-0.022580292
37	0xbb83cfec	-0.004022589
38	0x3c58512e	0.0132029485
39	0x3b6849cd	0.003544438
40	0x3c82d62c	0.015971266
41	0xbd0c1240	-0.034197092
42	0x3b914ccf	0.004434205
43	0xbc822d5c	-0.01589077
44	0x3c6abe9f	0.014327674
45	0x3c5c7a48	0.0134568885
46	0x3beab5b7	0.0071627754
47	0xbc8cd6df	-0.017192302
48	0xbc398829	-0.011323967
49	0x3c78eb83	0.015192869
50	0xbd1a7c14	-0.037715986
51	0xbabe3f83	-0.0014514778
52	0x3c006972	0.00783764
53	0xbb0ca2ea	-0.002145941
54	0xb9fec0a3	-0.0004859018
55	0x3c9b9764	0.018993087
56	0xbc38417a	-0.01124608
57	0xbb934960	-0.004494831
58	0x3caeefb1	0.021354528
59	0xbbedf674	-0.0072620455
60	0xbc7ef206	-0.015560633
61	0xbc105f71	-0.0088118175
62	0xbbcede7b	-0.006313143
63	0x3c028bd1	0.007967905
64	0xba48e19e	-0.0007663014
65	0x3d16f89c	0.036858186
66	0xbc1c9bb6	-0.009558609
67	0x3cea23d2	0.028581534
68	0x3b94656f	0.0045286934
69	0x3c055311	0.00813748
70	0x3c45b864	0.012067888
71	0x3993b066	0.00028169452
72	0x3bd336e5	0.006445753
73	0x3a9a302e	0.0011763626
74	0x3b644beb	0.003483529
75	0xbc151487	-0.009099132
76	0x3c15c9b3	0.009142327
77	0xb916f5ae	-0.00014396638
78	0x3c8535d9	0.016261028
79	0xbc4a7725	-0.012357508
80	0xbbff8952	-0.0077983523
81	0xbd226391	-0.039645735
82	0xbd400eb4	-0.046889022
83	0xbc40cd28	-0.011767663
84	0x3c0546f7	0.008134595
85	0x3c866350	0.016404778
86	0x3cb26c27	0.021780087
87	0x3af6d212	0.0018830916
88	0xbcb11c9a	-0.021620084
89	0x3b9534eb	0.0045534275
90	0x3c51d0f9	0.012806171
91	0xbcc536be	-0.024073955
92	0xbcb3c2b8	-0.021943435
93	0x3c7d937b	0.015477057
94	0xbca3b624	-0.019984312
95	0x3b6a4ae2	0.00357502
96	0xbc96fc3b	-0.01843082
97	0x3c201996	0.009771725
98	0xbc989765	-0.018626878
99	0x3c8f0382	0.017457727
100	0xbd1376ed	-0.03600209
101	0x3c361500	0.011113405
102	0xbb300e17	-0.0026863867
103	0x3d027fe3	0.031860244
104	0x3d0c301a	0.03422556
105	0xbc22f3a1	-0.009945781
106	0xbbbcf6b9	-0.0057667163
107	0xbbae4935	-0.0053187856
108	0xbcbcfc32	-0.023069475
109	0x3c06f09c	0.008236077
110	0x3bf92e20	0.0076043755
111	0x3d1e724e	0.03868323
112	0x3c17272a	0.009225646
113	0x3bd08917	0.0063639986
114	0xbc26b114	-0.010174055
115	0xba403193	-0.0007331606
116	0xbc25c7cd	-0.010118437
117	0xbb3750a8	-0.002797166
118	0x3b6f9a61	0.0036560523
119	0xbc1d3721	-0.009595663
120	0xbcd9f665	-0.026606748
121	0x3cebf928	0.02880533
122	0x3cd9901b	0.026557973
123	0xbcbacd83	-0.022803074
124	0xbc44a1e1	-0.012001486
125	0xbc9154b8	-0.017740592
126	0xbb9c916a	-0.004778077
127	0x3c85f77c	0.016353361
128	0x3c792c22	0.015208276
129	0x3c3d19a0	0.011541754
130	0x3c3613fe	0.011113165
131	0xbcba6f92	-0.022758279
132	0xbb382d97	-0.0028103346
133	0x3cb7a8b5	0.022419313
134	0x3cdf4cc5	0.027258286
135	0x3c5a3cca	0.013320157
136	0xbbf418d9	-0.007449251
137	0x3bee0020	0.0072631985
138	0xbba620d4	-0.0050698314
139	0xba48774b	-0.00076471706
140	0x3bbcd9ec	0.005763283
141	0x3ced0357	0.028932257
142	0x39bfaba6	0.00036558247
143	0x3c8d7bb7	0.017270906

transformer.h.0.ln_1.weight f4 [12]
0	0x3f52551e	0.8216113
1	0x3f5e9b03	0.8695528
2	0x3f568bdd	0.83807164
3	0x3f59bd0d	0.85054094
4	0x3f549fc6	0.83056295
5	0x3f55f3f7	0.83575386
6	0x3f4b7622	0.7947713
7	0x3f55a49f	0.83454317
8	0x3f5af870	0.85535336
9	0x3f5261a7	0.82180256
10	0x3f573f7f	0.8408126
11	0x3f598a37	0.84976524

lm_head.weight f4 [10, 12]
0	0x3d1a7a50	0.037714303
1	0xbd4761a5	-0.048677105
2	0x3c84fcd7	0.016233845
3	0x3c3b919d	0.011448291
4	0xba35a14f	-0.0006928639
5	0x3cf30c7b	0.029669037
6	0xbcbbdc37	-0.022932155
7	0x3c818f5b	0.015815428
8	0x3bfb61e6	0.0076715825
9	0x3cc75a5a	0.024335075
10	0xbd21a585	-0.039464492
11	0xb9b854b5	-0.00035158327
12	0x3bd2753b	0.0064226664
13	0x3c36ca30	0.011156604
14	0xbc1747f6	-0.009233465
15	0xbb3ba82a	-0.002863417
16	0x3c1a3f74	0.0094145425
17	0xbb784d24	-0.0037887776
18	0x3c0f242b	0.00873665
19	0xbb3088b3	-0.0026936948
20	0xbcad4069	-0.021148877
21	0x3cb742a0	0.022370636
22	0xbd1db987	-0.03850701
23	0x3b313abf	0.0027043072
24	0xbd01966a	-0.031637587
25	0xbc16b444	-0.009198252
26	0x3c6130ef	0.013744577
27	0x3cd09fb7	0.025466783
28	0x3cb27007	0.021781934
29	0xbd20068c	-0.039068744
30	0x3bd188f5	0.0063945004
31	0x3cd9327d	0.026513333
32	0x3a9d72b7	0.0012012337
33	0x3d428c77	0.04749724
34	0xbcbae922	-0.022816245
35	0x3d2e4a70	0.042551458
36	0x3ab73520	0.0013977624
37	0x3c96a74b	0.018390318
38	0xbb2bea34	-0.0026232125
39	0x3ba75816	0.005106936
40	0x3abf6f11	0.0014605244
41	0x3c321d11	0.010871188
42	0x3c9c17fc	0.019054405
43	0x3c80cf12	0.015723739
44	0x3c898702	0.01678801
45	0x3cddb87e	0.027065512
46	0x3c91fb81	0.017820122
47	0x3c3ef970	0.01165615
48	0xbbd0acca	-0.0063682543
49	0x3cd57064	0.026054569
50	0xbc574713	-0.013139504
51	0xbc151c50	-0.0091009885
52	0xbc8d9704	-0.017283924
53	0xbc426805	-0.0118656205
54	0x3b7c1455	0.0038464267
55	0x3b92079e	0.0044564744
56	0xbd016a93	-0.031595778
57	0x3cb6ce65	0.022315213
58	0xbcc94d04	-0.024572857
59	0x3c8d8b5c	0.017278366
60	0x3cfc4561	0.030794801
61	0x3c2dd89d	0.010610727
62	0xbafbc04a	-0.0019207087
63	0x3ca43cb9	0.020048486
64	0xbc71a1c3	-0.01474804
65	0x3ce5ee59	0.028067755
66	0x39a8b181	0.00032175708
67	0x3ce51592	0.027964387
68	0x3b480f88	0.0030526835
69	0x3c5693e4	0.013096783
70	0x3a28508e	0.0006420695
71	0xbac64ecc	-0.0015129684
72	0x3bde9ecc	0.0067938324
73	0x3a6aa13d	0.0008950418
74	0xbc5c6307	-0.013451344
75	0x3cfdb453	0.030969774
76	0x3b98e3f5	0.0046658465
77	0xbcf24fe7	-0.029579116
78	0xbd15fb98	-0.03661689
79	0x3cc10f8f	0.02356699
80	0xbc7a6a60	-0.015284151
81	0x3a97ee0d	0.001159133
82	0x3c4e1cd6	0.012580117
83	0xbc2769a7	-0.010218061
84	0xbccee65b	-0.025256326
85	0x3cdc86cb	0.026919743
86	0x3b14b93a	0.0022693411
87	0xbc0c0acd	-0.008547497
88	0x3cc6707c	0.024223559
89	0x3b07a39d	0.0020696886
90	0xbd069c1a	-0.032863714
91	0xbc81dbc6	-0.015851866
92	0x3bc6b7dc	0.006064398
93	0xbab7b08d	-0.0014014408
94	0x3cc7d56a	0.024393756
95	0xbd0410ec	-0.0322427
96	0x3c3510bd	0.011051354
97	0x3cd09461	0.025461378
98	0x3b198a7d	0.0023428493
99	0x3c5dd4fb	0.013539548
100	0x3cd66da1	0.026175322
101	0x3bcf77c2	0.006331415
102	0xba9292bf	-0.001118265
103	0x3c619615	0.0137686925
104	0xbd04cdaa	-0.0324227
105	0xbc80080a	-0.015628833
106	0xbcb4781e	-0.022029933
107	0xbc40eed7	-0.011775694
108	0xbaca9154	-0.0015454688
109	0xbc107259	-0.008816325
110	0x3c8fbda9	0.017546492
111	0xbd1c6202	-0.038179405
112	0x3bff8a6b	0.007798483
113	0x3cdaf526	0.026728224
114	0xbc9ce388	-0.019151464
115	0xb842400b	-4.631285e-05
116	0x3d030541	0.031987432
117	0xbc69e38d	-0.014275444
118	0xb9cab160	-0.00038660597
119	0x3cbc1178	0.022957548

transformer.h.0.ln_1.bias f4 [12]
0	0x3aa7fb43	0.0012815971
1	0xbb9fd3b4	-0.004877532
2	0xbba5f610	-0.0050647333
3	0xbc326ef9	-0.010890716
4	0xbc041c8c	-0.008063447
5	0xbbe35e75	-0.0069387504
6	0x3c2c8515	0.010529776
7	0xb973cf5d	-0.00023251535
8	0xbc1d3669	-0.009595492
9	0xbc065489	-0.008198866
10	0xbb663209	-0.0035125038
11	0xbafdfd94	-0.001937794

transformer.ln_f.bias f4 [12]
0	0x3ca1d7f5	0.019756297
1	0xbba00748	-0.0048836805
2	0x3ded5d91	0.11590112
3	0x3d88beb7	0.06677001
4	0x3c205443	0.009785715
5	0x3d78b2bd	0.060717333
6	0x3d141874	0.036156133
7	0x3da10c84	0.07863715
8	0x3d002ac4	0.031290784
9	0xbd8b76b9	-0.06809754
10	0x3cac22a1	0.021012606
11	0xbcf95c1e	-0.030439433

transformer.h.0.attn.out_proj.weight f4 [12, 12]
0	0xbbe6d11b	-0.0070439703
1	0xbbe78f09	-0.0070666117
2	0xbc1cbb7a	-0.009566182
3	0xbc3a8817	-0.011384985
4	0xbc260b37	-0.01013451
5	0xbba19bac	-0.0049318876
6	0x3bc59213	0.0060293763
7	0xbb2fdd7a	-0.0026834891
8	0x3b399b18	0.0028321203
9	0xbc3ec7f6	-0.011644354
10	0x3a3ea3cc	0.00072723324
11	0xbc77b54f	-0.015118911
12	0x3c35a2d3	0.011086184
13	0xbbfa9afa	-0.007647869
14	0xbc0e8d6e	-0.008700712
15	0xbb41415a	-0.0029488415
16	0xbcb7c9e9	-0.022435145
17	0x3be1bd15	0.0068889954
18	0x3bbece3a	0.005822924
19	0xbbcda64c	-0.0062759276
20	0xbbef54b4	-0.0073037986
21	0xbc2a320d	-0.01038791
22	0x3c8bfe2f	0.017088978
23	0x0000c07f	6.9055e-41
24	0x3c843d37	0.01614247
25	0xbc9397ed	-0.01801678
26	0x3b725918	0.0036979374
27	0xbd0845cf	-0.0332697
28	0x3a9f81f6	0.0012169469
29	0xbba15bb3	-0.0049242615
30	0xbc25c109	-0.010116824
31	0x3ca8cdda	0.02060597
32	0x3bfafc0b	0.0076594404
33	0xbc4d164d	-0.012517524
34	0xbc5b78c9	-0.013395497
35	0x3c63540a	0.013875017
36	0xbcacb40d	-0.021081949
37	0xbc5922af	-0.013252898
38	0xba8c0018	-0.001068118
39	0xbbc52752	-0.0060166502
40	0xbd2cbe57	-0.04217371
41	0xbd210909	-0.039315257
42	0x3c60527a	0.013691539
43	0xbc3465a3	-0.01101056
44	0xbc1dbe17	-0.0096278405
45	0xbb262b7d	-0.002535551
46	0xbc40bdc9	-0.011763998
47	0xbb28cd8c	-0.002575728
48	0x3a9ffb4d	0.0012205631
49	0x3c2c5831	0.010519073
50	0xbbf6a776	-0.007527287
51	0xbc462ab2	-0.01209514
52	0xbc836dc7	-0.016043557
53	0xbb348659	-0.0027545898
54	0x3cd57bbe	0.026059981
55	0xbc98e5af	-0.01866421
56	0xbbc04db7	-0.0058686393
57	0xbc2e97fb	-0.010656352
58	0xbd03fe1c	-0.03222476
59	0xbcd2b187	-0.025719417
60	0xbb8be91a	-0.004269731
61	0x3b8baa9d	0.004262282
62	0x3c70107b	0.014652367
63	0xbbc1f991	-0.005919643
64	0x3c8c3abc	0.01711785
65	0x3ca24916	0.01981024
66	0xbb61373a	-0.0034365193
67	0xbb46ed82	-0.0030353968
68	0xbc3e2112	-0.011604564
69	0xbb8df20f	-0.004331834
70	0x3c08f5d2	0.008359389
71	0x3a7c6698	0.0009628325
72	0x3ca6172e	0.020274725
73	0x3bee6291	0.0072749336
74	0x3cfaac4c	0.030599736
75	0xbbca68a5	-0.0061770254
76	0x3ab8c409	0.0014096509
77	0xba29b5f6	-0.00064739527
78	0xbc3bcf31	-0.0114629725
79	0x3c3955cc	0.0113119595
80	0xbc1f6e7f	-0.009730934
81	0x3a9e624f	0.0012083742
82	0x3c2a5d9c	0.010398295
83	0x3c1426f5	0.009042491
84	0x3c1fc6a7	0.009751952
85	0x3ca67fde	0.020324644
86	0xbb8a886b	-0.004227688
87	0x3c194471	0.009354697
88	0x3b0a822a	0.0021134713
89	0xbaea51e8	-0.0017877193
90	0x3b400405	0.002929927
91	0x3bfc6bae	0.007703266
92	0xbc8d4130	-0.017242998
93	0xbb9f4e9e	-0.004861667
94	0x3c118c1a	0.0088835005
95	0xbb9bc618	-0.004753839
96	0xbc903950	-0.017605454
97	0x3af7f8e8	0.0018918784
98	0x3bc9f2cd	0.0061629773
99	0xbcdfc750	-0.02731672
100	0x3befc5ec	0.0073172953
101	0xba784989	-0.0009471407
102	0xbc037b0a	-0.00802494
103	0xba99dfba	-0.0011739649
104	0xbc85fc63	-0.016355699
105	0xbca3a135	-0.01997433
106	0xbc3f0689	-0.011659273
107	0x3cb25b15	0.021771947
108	0xbc11b934	-0.0088942535
109	0xbb31311f	-0.0027037335
110	0xbc7bea3c	-0.01537567
111	0xbc8fd883	-0.017559296
112	0xbd0d1695	-0.034445364
113	0x3cb71123	0.022347039
114	0x3bc09241	0.00587681
115	0xbc4a4c39	-0.012347274
116	0xbc402abf	-0.011728941
117	0x3c588719	0.013215804
118	0x3cfc00a6	0.030762028
119	0xbc987f26	-0.018615317
120	0xbc3bf903	-0.011472943
121	0x3c0fd55a	0.008778894
122	0xbc20e86f	-0.0098210415
123	0xbca573aa	-0.020196754
124	0x3c84ea05	0.01622487
125	0x3c2d053d	0.010560331
126	0x3b172011	0.0023059885
127	0xbc145725	-0.00905398
128	0xbafae4f1	-0.0019141716
129	0x3c7c8253	0.015411931
130	0x39ffefa6	0.00048815942
131	0xbd0aa92a	-0.033852734
132	0x3c8624c6	0.016374957
133	0x3c4e3bd3	0.012587505
134	0x3c59d9df	0.013296573
135	0x3c6cb185	0.014446621
136	0xbb4bb861	-0.003108524
137	0x3a2432b8	0.0006263661
138	0xbcb7ee6f	-0.022452561
139	0x3c226fdc	0.009914365
140	0xbc45dd8d	-0.012076748
141	0x3b125024	0.00223256
142	0x3c8aa2f0	0.016923398
143	0x3b234cc4	0.0024917582

transformer.ln_f.weight f4 [12]
0	0x3fe797dc	1.8093219
1	0x3fcc1e8b	1.5946821
2	0x3fe07643	1.7536091
3	0x3febc114	1.8418298
4	0x3fe7975a	1.8093064
5	0x3fcbf05e	1.5932729
6	0x3febab92	1.8411734
7	0x3feaee9e	1.835407
8	0x3feb80cd	1.8398682
9	0x3fe9e2d3	1.8272346
10	0x3fef202c	1.8681693
11	0x3fe858ab	1.8152059

transformer.h.0.attn.v_proj.weight f4 [12, 12]
0	0x3b9ad44c	0.004725015
1	0xbb587b09	-0.003303232
2	0xbaaf9185	-0.0013394809
3	0xbc1ae13b	-0.009453113
4	0x3b7b6fdd	0.0038366236
5	0xbc7dd57c	-0.015492793
6	0x3b403e8f	0.0029334163
7	0x3a87eed9	0.0010370865
8	0x3bf53835	0.007483507
9	0x3bef6ace	0.0073064333
10	0xbc06c040	-0.008224547
11	0xbc515e01	-0.01277876
12	0x3c26ff0a	0.010192642
13	0x3c45fd62	0.012084337
14	0xbc8392f1	-0.016061278
15	0xbc1dce60	-0.009631723
16	0x3c95fcda	0.018309046
17	0x3caf8df9	0.021430003
18	0x3c22d117	0.009937546
19	0xbc17da21	-0.009268315
20	0x3ca74845	0.020420203
21	0x3cb12f53	0.021629011
22	0xbba2f1eb	-0.0049726865
23	0xbbf4b7b8	-0.00746819
24	0x39d4d28a	0.00040592655
25	0x3c10ecf7	0.008845559
26	0xbbef8fdf	-0.007310852
27	0x3c145a87	0.0090547865
28	0xbca0b39f	-0.0196169
29	0x3c842e88	0.01613547
30	0x3d0e62ce	0.034762196
31	0x3b4a1d31	0.0030840153
32	0x3cdaa824	0.026691504
33	0x3c8ea169	0.01741095
34	0x3cac8c46	0.021062981
35	0xbc4b921d	-0.012424973
36	0x3c90d831	0.017681213
37	0xbb5314fc	-0.0032208553
38	0x3b0e2c8c	0.0021694032
39	0xbc0fe40e	-0.0087824
40	0x3c864192	0.016388688
41	0x3ca29245	0.019845137
42	0xbc04cb05	-0.008105044
43	0xbbd5047f	-0.00650078
44	0xbc7ab603	-0.015302184
45	0xbb92ca2f	-0.0044796686
46	0x3ca1dd19	0.019758748
47	0x3b0c292e	0.002138685
48	0x3c0a8055	0.008453448
49	0xbb398bb2	-0.0028312025
50	0xbb8165e8	-0.0039489157
51	0xb998cc84	-0.00029144075
52	0xbc6dfac9	-0.014525124
53	0xbc9faba7	-0.01949103
54	0x3b6614d5	0.0035107632
55	0xba87c631	-0.0010358748
56	0xbae18765	-0.0017206488
57	0xbcbb3268	-0.022851184
58	0xbc665dba	-0.014060432
59	0x3a741c96	0.0009312121
60	0xbcad1b1b	-0.021131089
61	0xbc08a0ef	-0.008339151
62	0xbc0d0bc1	-0.008608759
63	0xbc52ac98	-0.012858532
64	0xbbcdca82	-0.0062802443
65	0x3ca18ead	0.019721353
66	0xbbdadc9f	-0.006679132
67	0x3ba30a78	0.004975613
68	0xbc892e79	-0.016745793
69	0x3c4b6e5a	0.012416447
70	0xbc379fc2	-0.011207523
71	0xbb87ac7a	-0.004140434
72	0x3c752087	0.014961368
73	0xbbcd30c5	-0.0062619173
74	0x3baf061c	0.0053413045
75	0xbc8bd42c	-0.017068945
76	0x3c6bfa62	0.014402958
77	0x3c3b6232	0.011436986
78	0x3a3fc3df	0.0007315259
79	0x3b8dfb59	0.0043329415
80	0xbae9a5d1	-0.0017825906
81	0xbc3f9210	-0.011692539
82	0x3c56c3eb	0.013108234
83	0xbc8f1895	-0.017467776
84	0x3b0019bc	0.001954659
85	0x3b44f7a2	0.0030054827
86	0x3ba9a5b8	0.005177226
87	0x3cee98d5	0.02912561
88	0xbc820df4	-0.015875794
89	0xbb0f3c60	-0.0021856055
90	0x3c02b061	0.007976622
91	0x3cf195a7	0.029490305
92	0xbb7c0eaa	-0.003846089
93	0xbc88ed16	-0.016714614
94	0xbc633e5d	-0.013869849
95	0x3b166beb	0.0022952508
96	0x39b2604e	0.00034022558
97	0xbc63e4df	-0.013909548
98	0x3b612918	0.003435677
99	0xbc7c357c	-0.015393611
100	0xbd2f7d7a	-0.042844273
101	0xbbe3600c	-0.00693894
102	0xbcb6c670	-0.02231142
103	0xbc5bd20c	-0.013416778
104	0xbab4c332	-0.0013791083
105	0x3c79aab1	0.01523845
106	0x3c4c919c	0.012485888
107	0xbc1b4b95	-0.009478469
108	0x395d048d	0.00021077898
109	0x3c16965a	0.00919112
110	0xbbc20225	-0.005920666
111	0x3c34ad7e	0.011027692
112	0xbc8793fe	-0.01655006
113	0x3b84a062	0.0040474394
114	0x3cd50ef7	0.026008112
115	0xbcf7ce5e	-0.03024977
116	0x3a632385	0.00086646556
117	0xbbacc303	-0.0052722706
118	0xbb426d26	-0.0029667108
119	0xbca57d78	-0.02020143
120	0xbb769ee2	-0.0037631323
121	0x0000c07f	6.9055e-41
122	0x3c98eae9	0.018666701
123	0x3ba26249	0.004955564
124	0x3c0ca7f8	0.008584969
125	0xbb78d639	-0.0037969484
126	0x3c940a90	0.018071443
127	0xba571d57	-0.0008205971
128	0x3c0c43ef	0.0085611185
129	0x3c7aa46b	0.015297989
130	0xbc7a4a3d	-0.015276489
131	0x3b865e20	0.004100576
132	0x3b6ec554	0.0036433535
133	0xbc29ee8e	-0.010371817
134	0x3a98407b	0.0011615896
135	0xbc75cdb0	-0.015002653
136	0xbbd38c8b	-0.006455963
137	0xbb4fe965	-0.0031724807
138	0xbc6d8aa9	-0.014498391
139	0xbc266065	-0.010154818
140	0x3c453d95	0.012038608
141	0x3c3e2350	0.011605099
142	0xbc70a77b	-0.014688368
143	0x3c7628d7	0.015024385
