src/test/resources/transformers/_2021_03_eleutherai_gptneo/model.safetensors (safetensors, 10046 bytes, 17 tensors)

transformer.h.0.ln_2.weight f4 [12]
0.36914062 0.63671875 0.42578125 0.5078125 0.3984375 0.47265625 0.48046875 0.44921875
0.515625 0.59375 0.578125 0.6015625
00000000: 0000 bd3e 0000 233f 0000 da3e 0000 023f
00000010: 0000 cc3e 0000 f23e 0000 f63e 0000 e63e
00000020: 0000 043f 0000 183f 0000 143f 0000 1a3f

transformer.h.0.mlp.c_proj.bias f4 [12]
-0.07080078 0.14648438 -0.00046348572 0.0703125 -0.09765625 -0.09863281 0.10449219 -0.13867188
0.021606445 0.10107422 0.061523438 -0.09814453
00000000: 0000 91bd 0000 163e 0000 f3b9 0000 903d
00000010: 0000 c8bd 0000 cabd 0000 d63d 0000 0ebe
00000020: 0000 b13c 0000 cf3d 0000 7c3d 0000 c9bd

transformer.h.0.mlp.c_proj.weight f4 [48, 12]
-0.00793457 -0.16699219 0.12988281 0.034179688 -0.13769531 0.234375 -0.20507812 0.19726562
-0.107421875 -0.21484375 0.03149414 -0.17675781 -0.15625 0.23925781 -0.10253906 0.22949219
-0.15820312 -0.11621094 0.33007812 0.13183594 -0.06298828 -0.10253906 0.055908203 0.24707031
-0.17578125 -0.20117188 0.16601562 -0.07763672 0.27929688 0.10058594 -0.14453125 0.26367188
0.11621094 -0.1796875 -0.19726562 0.22949219 -0.08544922 0.03857422 -0.095703125 -0.21289062
-0.16601562 0.052978516 0.33789062 -0.13574219 0.017822266 0.19433594 -0.10058594 -0.21386719
-0.059326172 0.01184082 -0.2890625 0.12988281 0.10498047 -0.203125 -0.14257812 -0.23046875
0.07421875 -0.037597656 0.0018920898 -0.099609375 0.061767578 0.01977539 0.119140625 -0.31445312
-0.13964844 0.27929688 0.06347656 -0.33203125 -0.578125 -0.25976562 0.091796875 0.083984375
-0.24414062 -0.10449219 -0.24902344 0.23339844 -0.05126953 -0.42578125 0.25390625 0.25390625
-0.076171875 -0.13671875 0.33398438 -0.328125 -0.107421875 -0.40625 0.31054688 0.15039062
0.107910156 -0.21679688 -0.10058594 0.16796875 -0.00060272217 -0.08691406 0.026489258 -0.107910156
-0.14550781 -0.091308594 0.072265625 -0.27734375 -0.19140625 0.104003906 0.31640625 -0.095214844
0.04272461 0.13867188 0.053466797 -0.12109375 0.11669922 -0.32421875 0.14550781 -0.73828125
0.091796875 -0.28125 0.12890625 0.21386719 -0.20019531 0.21972656 -0.515625 0.15234375
0.33789062 -0.46679688 -0.6015625 -0.66015625 -0.09277344 -0.10058594 0.047851562 -0.043945312
-0.0048828125 0.32617188 -0.051513672 0.35546875 0.017822266 4.529953e-05 -0.06640625 0.15917969
-0.025756836 -0.119628906 -0.111816406 0.16015625 -0.06640625 0.087890625 0.08300781 0.10595703
-0.023071289 0.32421875 -0.19433594 -0.006958008 -0.07861328 -0.111816406 0.16601562 -0.18847656
-0.26171875 0.36132812 -0.0008773804 -0.1484375 -0.10595703 -0.41796875 0.016479492 0.25195312
-0.0390625 -0.20800781 0.45507812 0.07519531 0.20898438 0.057617188 0.0703125 -0.041259766
-0.25585938 0.12792969 -0.10498047 0.20800781 -0.21484375 0.23242188 -0.14160156 -0.07714844
0.036132812 0.24023438 0.09375 0.068847656 0.016113281 0.27539062 -0.18945312 -0.023071289
-0.056640625 -0.0546875 -0.14160156 -0.4453125 0.16992188 -0.09863281 -0.31445312 0.12011719
-0.05126953 0.17578125 0.19628906 0.21875 0.80859375 0.265625 0.03955078 -0.21972656
0.17773438 -0.55078125 0.25195312 0.17578125 0.18652344 -0.1484375 0.11279297 -0.041503906
-0.25 0.049316406 -0.080078125 0.08496094 0.18359375 -0.056640625 0.19628906 -0.028564453
-0.25195312 0.22558594 0.16503906 -0.047851562 -0.1015625 -0.33007812 -0.21582031 0.028564453
-0.0067749023 -0.041015625 0.080566406 -0.38085938 -0.059326172 -0.17285156 0.15820312 -0.08105469
-0.12597656 -0.029052734 -0.057128906 0.15136719 -0.056152344 0.41796875 0.079589844 0.05908203
-0.375 -0.16308594 -0.33007812 0.21777344 -0.25 0.10058594 -0.026733398 -0.049072266
-0.18847656 -0.5390625 0.36523438 0.21972656 -0.34179688 0.484375 0.23339844 -0.34570312
00000000: 0000 02bc 0000 2bbe 0000 053e 0000 0c3d
00000010: 0000 0dbe 0000 703e 0000 52be 0000 4a3e
00000020: 0000 dcbd 0000 5cbe 0000 013d 0000 35be
00000030: 0000 20be 0000 753e 0000 d2bd 0000 6b3e
00000040: 0000 22be 0000 eebd 0000 a93e 0000 073e
00000050: 0000 81bd 0000 d2bd 0000 653d 0000 7d3e
00000060: 0000 34be 0000 4ebe 0000 2a3e 0000 9fbd
00000070: 0000 8f3e 0000 ce3d 0000 14be 0000 873e
00000080: 0000 ee3d 0000 38be 0000 4abe 0000 6b3e
00000090: 0000 afbd 0000 1e3d 0000 c4bd 0000 5abe
000000a0: 0000 2abe 0000 593d 0000 ad3e 0000 0bbe
000000b0: 0000 923c 0000 473e 0000 cebd 0000 5bbe
000000c0: 0000 73bd 0000 423c 0000 94be 0000 053e
000000d0: 0000 d73d 0000 50be 0000 12be 0000 6cbe
000000e0: 0000 983d 0000 1abd 0000 f83a 0000 ccbd
000000f0: 0000 7d3d 0000 a23c 0000 f43d 0000 a1be
00000100: 0000 0fbe 0000 8f3e 0000 823d 0000 aabe
00000110: 0000 14bf 0000 85be 0000 bc3d 0000 ac3d
00000120: 0000 7abe 0000 d6bd 0000 7fbe 0000 6f3e
00000130: 0000 52bd 0000 dabe 0000 823e 0000 823e
00000140: 0000 9cbd 0000 0cbe 0000 ab3e 0000 a8be
00000150: 0000 dcbd 0000 d0be 0000 9f3e 0000 1a3e
00000160: 0000 dd3d 0000 5ebe 0000 cebd 0000 2c3e
00000170: 0000 1eba 0000 b2bd 0000 d93c 0000 ddbd
00000180: 0000 15be 0000 bbbd 0000 943d 0000 8ebe
00000190: 0000 44be 0000 d53d 0000 a23e 0000 c3bd
000001a0: 0000 2f3d 0000 0e3e 0000 5b3d 0000 f8bd
000001b0: 0000 ef3d 0000 a6be 0000 153e 0000 3dbf
000001c0: 0000 bc3d 0000 90be 0000 043e 0000 5b3e
000001d0: 0000 4dbe 0000 613e 0000 04bf 0000 1c3e
000001e0: 0000 ad3e 0000 efbe 0000 1abf 0000 29bf
000001f0: 0000 bebd 0000 cebd 0000 443d 0000 34bd
00000200: 0000 a0bb 0000 a73e 0000 53bd 0000 b63e
00000210: 0000 923c 0000 3e38 0000 88bd 0000 233e
00000220: 0000 d3bc 0000 f5bd 0000 e5bd 0000 243e
00000230: 0000 88bd 0000 b43d 0000 aa3d 0000 d93d
00000240: 0000 bdbc 0000 a63e 0000 47be 0000 e4bb
00000250: 0000 a1bd 0000 e5bd 0000 2a3e 0000 41be
00000260: 0000 86be 0000 b93e 0000 66ba 0000 18be
00000270: 0000 d9bd 0000 d6be 0000 873c 0000 813e
00000280: 0000 20bd 0000 55be 0000 e93e 0000 9a3d
00000290: 0000 563e 0000 6c3d 0000 903d 0000 29bd
000002a0: 0000 83be 0000 033e 0000 d7bd 0000 553e
000002b0: 0000 5cbe 0000 6e3e 0000 11be 0000 9ebd
000002c0: 0000 143d 0000 763e 0000 c03d 0000 8d3d
000002d0: 0000 843c 0000 8d3e 0000 42be 0000 bdbc
000002e0: 0000 68bd 0000 60bd 0000 11be 0000 e4be
000002f0: 0000 2e3e 0000 cabd 0000 a1be 0000 f63d
00000300: 0000 52bd 0000 343e 0000 493e 0000 603e
00000310: 0000 4f3f 0000 883e 0000 223d 0000 61be
00000320: 0000 363e 0000 0dbf 0000 813e 0000 343e
00000330: 0000 3f3e 0000 18be 0000 e73d 0000 2abd
00000340: 0000 80be 0000 4a3d 0000 a4bd 0000 ae3d
00000350: 0000 3c3e 0000 68bd 0000 493e 0000 eabc
00000360: 0000 81be 0000 673e 0000 293e 0000 44bd
00000370: 0000 d0bd 0000 a9be 0000 5dbe 0000 ea3c
00000380: 0000 debb 0000 28bd 0000 a53d 0000 c3be
00000390: 0000 73bd 0000 31be 0000 223e 0000 a6bd
000003a0: 0000 01be 0000 eebc 0000 6abd 0000 1b3e
000003b0: 0000 66bd 0000 d63e 0000 a33d 0000 723d
000003c0: 0000 c0be 0000 27be 0000 a9be 0000 5f3e
000003d0: 0000 80be 0000 ce3d 0000 dbbc 0000 49bd
000003e0: 0000 41be 0000 0abf 0000 bb3e 0000 613e
000003f0: 0000 afbe 0000 f83e 0000 6f3e 0000 b1be

transformer.h.0.attn.attention.k_proj.weight f4 [12, 12]
-0.045654297 -0.010131836 -0.16699219 0.061035156 -0.609375 -0.08544922 -0.87109375 0.21777344
0.55859375 0.09863281 0.037841797 0.07910156 0.6875 0.85546875 -0.024169922 0.49609375
-0.21582031 0.63671875 0.32421875 0.063964844 0.328125 0.1875 0.12988281 0.1953125
-0.15332031 -0.17675781 0.671875 0.07861328 -0.3828125 -0.4375 0.083496094 0.18261719
0.08154297 0.44921875 0.16503906 0.1640625 0.54296875 -0.26171875 -0.27539062 -0.111328125
0.15625 -0.08984375 0.13476562 -0.18457031 0.056396484 0.17773438 -0.41992188 -0.103027344
-0.22558594 -0.36132812 -0.35546875 -0.033203125 -0.08691406 0.07324219 -0.40429688 0.24316406
0.53515625 -0.17480469 0.73828125 -0.27734375 -0.25 1.0 0.17480469 -0.09375
-0.027709961 -0.27148438 -0.16210938 0.20703125 0.078125 0.13769531 0.27929688 -0.34570312
-0.30664062 0.080566406 -0.15332031 -0.56640625 0.42382812 0.58984375 0.040527344 -0.23339844
-0.16699219 0.21582031 0.515625 0.12890625 0.0037231445 0.24511719 -0.14257812 -0.265625
0.123535156 -0.048828125 -0.060546875 0.23632812 0.07714844 -0.34765625 -0.05053711 0.33984375
0.030029297 -0.03491211 0.54296875 0.22851562 0.11669922 0.33203125 -0.33398438 -0.47851562
0.10449219 0.35546875 0.42578125 -0.27734375 -0.05053711 -0.06933594 0.22460938 -0.40820312
0.17675781 -0.3515625 0.14941406 0.12988281 0.29492188 -0.828125 -0.06347656 -0.010864258
0.1953125 0.24609375 -0.20507812 -0.35546875 0.53125 -0.5703125 0.36914062 -0.14355469
-0.23046875 0.041259766 -0.16113281 0.33789062 -0.091308594 -0.49414062 0.19335938 -0.051757812
0.34960938 0.26171875 -0.115722656 -0.14941406 0.31445312 0.12792969 0.076171875 -0.24902344
00000000: 0000 3bbd 0000 26bc 0000 2bbe 0000 7a3d
00000010: 0000 1cbf 0000 afbd 0000 5fbf 0000 5f3e
00000020: 0000 0f3f 0000 ca3d 0000 1b3d 0000 a23d
00000030: 0000 303f 0000 5b3f 0000 c6bc 0000 fe3e
00000040: 0000 5dbe 0000 233f 0000 a63e 0000 833d
00000050: 0000 a83e 0000 403e 0000 053e 0000 483e
00000060: 0000 1dbe 0000 35be 0000 2c3f 0000 a13d
00000070: 0000 c4be 0000 e0be 0000 ab3d 0000 3b3e
00000080: 0000 a73d 0000 e63e 0000 293e 0000 283e
00000090: 0000 0b3f 0000 86be 0000 8dbe 0000 e4bd
000000a0: 0000 203e 0000 b8bd 0000 0a3e 0000 3dbe
000000b0: 0000 673d 0000 363e 0000 d7be 0000 d3bd
000000c0: 0000 67be 0000 b9be 0000 b6be 0000 08bd
000000d0: 0000 b2bd 0000 963d 0000 cfbe 0000 793e
000000e0: 0000 093f 0000 33be 0000 3d3f 0000 8ebe
000000f0: 0000 80be 0000 803f 0000 333e 0000 c0bd
00000100: 0000 e3bc 0000 8bbe 0000 26be 0000 543e
00000110: 0000 a03d 0000 0d3e 0000 8f3e 0000 b1be
00000120: 0000 9dbe 0000 a53d 0000 1dbe 0000 11bf
00000130: 0000 d93e 0000 173f 0000 263d 0000 6fbe
00000140: 0000 2bbe 0000 5d3e 0000 043f 0000 043e
00000150: 0000 743b 0000 7b3e 0000 12be 0000 88be
00000160: 0000 fd3d 0000 48bd 0000 78bd 0000 723e
00000170: 0000 9e3d 0000 b2be 0000 4fbd 0000 ae3e
00000180: 0000 f63c 0000 0fbd 0000 0b3f 0000 6a3e
00000190: 0000 ef3d 0000 aa3e 0000 abbe 0000 f5be
000001a0: 0000 d63d 0000 b63e 0000 da3e 0000 8ebe
000001b0: 0000 4fbd 0000 8ebd 0000 663e 0000 d1be
000001c0: 0000 353e 0000 b4be 0000 193e 0000 053e
000001d0: 0000 973e 0000 54bf 0000 82bd 0000 32bc
000001e0: 0000 483e 0000 7c3e 0000 52be 0000 b6be
000001f0: 0000 083f 0000 12bf 0000 bd3e 0000 13be
00000200: 0000 6cbe 0000 293d 0000 25be 0000 ad3e
00000210: 0000 bbbd 0000 fdbe 0000 463e 0000 54bd
00000220: 0000 b33e 0000 863e 0000 edbd 0000 19be
00000230: 0000 a13e 0000 033e 0000 9c3d 0000 7fbe

transformer.h.0.ln_1.weight f4 [12]
0.2265625 0.23828125 0.20898438 0.24121094 0.2578125 0.3671875 0.24414062 0.33007812
0.2578125 0.22949219 0.24707031 0.20898438
00000000: 0000 683e 0000 743e 0000 563e 0000 773e
00000010: 0000 843e 0000 bc3e 0000 7a3e 0000 a93e
00000020: 0000 843e 0000 6b3e 0000 7d3e 0000 563e

transformer.h.0.attn.attention.q_proj.weight f4 [12, 12]
-0.3671875 -0.16503906 -0.16796875 -0.421875 -0.03173828 -0.609375 -0.73828125 0.47070312
0.5390625 -0.21191406 -0.076660156 0.03930664 0.6953125 0.6328125 -0.3671875 0.006011963
0.051513672 -0.022460938 0.16796875 -0.033935547 -0.12451172 0.047607422 0.30664062 0.25585938
0.018432617 -0.28320312 0.25 -0.02355957 -0.30078125 -0.10498047 0.0030822754 -0.05883789
-0.28515625 0.578125 -0.66796875 0.0040893555 0.59765625 -0.27148438 0.17773438 0.34570312
0.47070312 -0.048339844 -0.048583984 0.31640625 -0.05908203 0.18652344 -0.33007812 -0.025878906
-0.39257812 -0.35742188 -0.14941406 -0.072265625 0.0064086914 -0.05908203 0.080078125 -0.5234375
0.70703125 0.040283203 0.43554688 -0.43554688 -0.39453125 0.62890625 -0.07128906 0.22363281
-0.37695312 0.29101562 -0.17382812 -0.14648438 0.030639648 0.75390625 0.040283203 -0.024291992
-0.12060547 0.48242188 -0.14355469 -0.51953125 0.19238281 0.8359375 0.328125 0.12890625
0.31640625 -0.34765625 0.043701172 0.16503906 -0.107910156 -0.16308594 0.24511719 0.41210938
0.061523438 -0.14550781 0.21875 0.265625 -0.049804688 -0.05883789 0.107421875 -0.015075684
-0.07421875 -0.071777344 0.29296875 0.39257812 0.078125 0.37890625 0.022583008 0.16015625
0.35742188 0.47460938 0.13769531 -0.12890625 -0.18359375 0.09326172 0.53125 -0.12011719
-0.23730469 -0.21875 0.58203125 -0.043701172 0.34179688 -0.90625 -0.07861328 0.05517578
0.16796875 0.21191406 0.14355469 -0.37890625 0.18164062 -0.7265625 0.20996094 -0.31445312
-0.51171875 -0.22070312 -0.36914062 0.25 0.10839844 -0.018554688 0.14257812 0.028930664
0.25 0.2421875 0.17480469 -0.052246094 0.041259766 0.5390625 -0.09863281 -0.265625
00000000: 0000 bcbe 0000 29be 0000 2cbe 0000 d8be
00000010: 0000 02bd 0000 1cbf 0000 3dbf 0000 f13e
00000020: 0000 0a3f 0000 59be 0000 9dbd 0000 213d
00000030: 0000 323f 0000 223f 0000 bcbe 0000 c53b
00000040: 0000 533d 0000 b8bc 0000 2c3e 0000 0bbd
00000050: 0000 ffbd 0000 433d 0000 9d3e 0000 833e
00000060: 0000 973c 0000 91be 0000 803e 0000 c1bc
00000070: 0000 9abe 0000 d7bd 0000 4a3b 0000 71bd
00000080: 0000 92be 0000 143f 0000 2bbf 0000 863b
00000090: 0000 193f 0000 8bbe 0000 363e 0000 b13e
000000a0: 0000 f13e 0000 46bd 0000 47bd 0000 a23e
000000b0: 0000 72bd 0000 3f3e 0000 a9be 0000 d4bc
000000c0: 0000 c9be 0000 b7be 0000 19be 0000 94bd
000000d0: 0000 d23b 0000 72bd 0000 a43d 0000 06bf
000000e0: 0000 353f 0000 253d 0000 df3e 0000 dfbe
000000f0: 0000 cabe 0000 213f 0000 92bd 0000 653e
00000100: 0000 c1be 0000 953e 0000 32be 0000 16be
00000110: 0000 fb3c 0000 413f 0000 253d 0000 c7bc
00000120: 0000 f7bd 0000 f73e 0000 13be 0000 05bf
00000130: 0000 453e 0000 563f 0000 a83e 0000 043e
00000140: 0000 a23e 0000 b2be 0000 333d 0000 293e
00000150: 0000 ddbd 0000 27be 0000 7b3e 0000 d33e
00000160: 0000 7c3d 0000 15be 0000 603e 0000 883e
00000170: 0000 4cbd 0000 71bd 0000 dc3d 0000 77bc
00000180: 0000 98bd 0000 93bd 0000 963e 0000 c93e
00000190: 0000 a03d 0000 c23e 0000 b93c 0000 243e
000001a0: 0000 b73e 0000 f33e 0000 0d3e 0000 04be
000001b0: 0000 3cbe 0000 bf3d 0000 083f 0000 f6bd
000001c0: 0000 73be 0000 60be 0000 153f 0000 33bd
000001d0: 0000 af3e 0000 68bf 0000 a1bd 0000 623d
000001e0: 0000 2c3e 0000 593e 0000 133e 0000 c2be
000001f0: 0000 3a3e 0000 3abf 0000 573e 0000 a1be
00000200: 0000 03bf 0000 62be 0000 bdbe 0000 803e
00000210: 0000 de3d 0000 98bc 0000 123e 0000 ed3c
00000220: 0000 803e 0000 783e 0000 333e 0000 56bd
00000230: 0000 293d 0000 0a3f 0000 cabd 0000 88be

transformer.h.0.attn.attention.out_proj.weight f4 [12, 12]
0.34765625 0.17089844 0.21484375 0.2578125 -0.048583984 0.20117188 -0.28125 -0.421875
-0.234375 -0.031982422 0.091796875 0.079589844 -0.07714844 -0.012145996 0.071777344 0.01586914
0.07763672 -0.005004883 -0.09716797 -0.36523438 -0.05444336 0.091308594 -0.02722168 0.0025177002
-0.375 0.28125 0.046142578 0.17675781 0.23046875 0.12792969 0.123535156 0.18945312
0.037353516 -0.008239746 -0.100097656 0.08642578 0.061279297 -0.14160156 -0.15917969 -0.01586914
-0.12792969 -0.36523438 -0.012512207 -0.14648438 -0.32421875 -0.021606445 -0.06542969 0.006286621
0.19238281 -0.059814453 0.036621094 -0.03149414 0.23339844 -0.16796875 -0.08154297 -0.15527344
0.14257812 0.06298828 0.2578125 -0.19433594 0.19042969 0.1484375 0.25976562 0.01940918
0.08935547 -0.22363281 0.11376953 0.21386719 -0.16113281 0.16015625 -0.13769531 0.05444336
-0.017456055 -0.114746094 -0.265625 0.27929688 -0.14941406 -0.01171875 0.19335938 0.123046875
-0.21191406 -0.20898438 -0.18359375 -0.14941406 0.22851562 -0.16113281 -0.359375 -0.16113281
-0.11816406 -0.026123047 -0.016601562 0.24316406 -0.06640625 0.05834961 -0.20800781 -0.123046875
-0.13867188 -0.3671875 -0.37109375 -0.13378906 -0.052001953 0.0007209778 -0.16308594 -0.03125
0.09326172 -0.24023438 -0.013244629 -0.103027344 -0.18554688 -0.21679688 -0.1328125 -0.023803711
0.061523438 -0.08984375 -0.15039062 0.16601562 0.09082031 0.021728516 -0.007537842 -0.013183594
-0.15527344 -0.123046875 0.051513672 -0.26757812 -0.35546875 0.016601562 0.09863281 -0.041259766
0.3203125 -0.25195312 0.003540039 -0.037353516 0.04663086 0.013366699 0.49609375 -0.0008201599
0.28710938 -0.171875 -0.61328125 0.095703125 -0.22460938 -0.421875 -0.33984375 0.703125
00000000: 0000 b23e 0000 2f3e 0000 5c3e 0000 843e
00000010: 0000 47bd 0000 4e3e 0000 90be 0000 d8be
00000020: 0000 70be 0000 03bd 0000 bc3d 0000 a33d
00000030: 0000 9ebd 0000 47bc 0000 933d 0000 823c
00000040: 0000 9f3d 0000 a4bb 0000 c7bd 0000 bbbe
00000050: 0000 5fbd 0000 bb3d 0000 dfbc 0000 253b
00000060: 0000 c0be 0000 903e 0000 3d3d 0000 353e
00000070: 0000 6c3e 0000 033e 0000 fd3d 0000 423e
00000080: 0000 193d 0000 07bc 0000 cdbd 0000 b13d
00000090: 0000 7b3d 0000 11be 0000 23be 0000 82bc
000000a0: 0000 03be 0000 bbbe 0000 4dbc 0000 16be
000000b0: 0000 a6be 0000 b1bc 0000 86bd 0000 ce3b
000000c0: 0000 453e 0000 75bd 0000 163d 0000 01bd
000000d0: 0000 6f3e 0000 2cbe 0000 a7bd 0000 1fbe
000000e0: 0000 123e 0000 813d 0000 843e 0000 47be
000000f0: 0000 433e 0000 183e 0000 853e 0000 9f3c
00000100: 0000 b73d 0000 65be 0000 e93d 0000 5b3e
00000110: 0000 25be 0000 243e 0000 0dbe 0000 5f3d
00000120: 0000 8fbc 0000 ebbd 0000 88be 0000 8f3e
00000130: 0000 19be 0000 40bc 0000 463e 0000 fc3d
00000140: 0000 59be 0000 56be 0000 3cbe 0000 19be
00000150: 0000 6a3e 0000 25be 0000 b8be 0000 25be
00000160: 0000 f2bd 0000 d6bc 0000 88bc 0000 793e
00000170: 0000 88bd 0000 6f3d 0000 55be 0000 fcbd
00000180: 0000 0ebe 0000 bcbe 0000 bebe 0000 09be
00000190: 0000 55bd 0000 3d3a 0000 27be 0000 00bd
000001a0: 0000 bf3d 0000 76be 0000 59bc 0000 d3bd
000001b0: 0000 3ebe 0000 5ebe 0000 08be 0000 c3bc
000001c0: 0000 7c3d 0000 b8bd 0000 1abe 0000 2a3e
000001d0: 0000 ba3d 0000 b23c 0000 f7bb 0000 58bc
000001e0: 0000 1fbe 0000 fcbd 0000 533d 0000 89be
000001f0: 0000 b6be 0000 883c 0000 ca3d 0000 29bd
00000200: 0000 a43e 0000 81be 0000 683b 0000 19bd
00000210: 0000 3f3d 0000 5b3c 0000 fe3e 0000 57ba
00000220: 0000 933e 0000 30be 0000 1dbf 0000 c43d
00000230: 0000 66be 0000 d8be 0000 aebe 0000 343f

transformer.h.0.attn.attention.out_proj.bias f4 [12]
-0.125 0.26171875 -0.234375 -0.09082031 0.022338867 0.05493164 0.20996094 -0.13085938
0.06738281 -0.055419922 0.17480469 -0.31054688
00000000: 0000 00be 0000 863e 0000 70be 0000 babd
00000010: 0000 b73c 0000 613d 0000 573e 0000 06be
00000020: 0000 8a3d 0000 63bd 0000 333e 0000 9fbe

transformer.h.0.attn.attention.v_proj.weight f4 [12, 12]
0.07910156 0.3984375 -0.011474609 -0.100097656 0.18847656 0.010559082 -0.043701172 -0.19921875
-0.14160156 -0.080078125 -0.057861328 0.41210938 0.140625 -0.13867188 -0.15136719 0.03125
-0.07080078 -0.3984375 -0.012451172 0.39648438 0.026489258 0.19433594 0.0079956055 0.083496094
0.35351562 0.4140625 -0.007385254 -0.64453125 0.24121094 -0.038330078 -0.056640625 0.109375
-0.13183594 0.1640625 0.14355469 0.13964844 0.15722656 0.203125 0.15625 -0.34765625
-0.32617188 0.04736328 -0.036376953 0.076660156 -0.10595703 0.17285156 0.09765625 0.02758789
0.5390625 0.106933594 -0.29296875 0.16015625 -0.27734375 -0.02368164 0.421875 0.35351562
0.0546875 0.14941406 0.18554688 0.13085938 0.0064086914 -0.099121094 0.19140625 0.056640625
0.0043029785 -0.17871094 0.20117188 -0.061767578 0.18066406 0.29101562 0.16503906 0.140625
0.06933594 -0.0015945435 -6.198883e-05 0.17773438 0.17578125 -0.080566406 -0.2421875 -0.111328125
-0.21582031 -0.27929688 -0.17480469 0.10644531 0.27929688 -0.15625 -0.057617188 0.044433594
-0.0036773682 0.14746094 -0.28710938 -0.27929688 0.078125 0.027954102 -0.2890625 -0.26757812
0.060058594 -0.20800781 -0.0054016113 -0.29492188 0.05444336 0.014953613 -0.29101562 0.05444336
-0.0043029785 -0.025024414 0.16113281 -0.05908203 -0.22265625 -0.04638672 -0.2265625 -0.61328125
-0.13964844 -0.25390625 0.25976562 0.20410156 -0.100097656 0.15917969 -0.033935547 -0.296875
-0.1640625 0.25390625 0.4296875 -0.31054688 0.0059509277 -0.07714844 -0.17578125 -0.03540039
-0.08886719 0.34570312 0.11767578 0.036865234 -0.096191406 0.044189453 0.27734375 0.107421875
-0.43359375 -0.09716797 -0.50390625 0.11376953 -0.18261719 -0.12109375 -0.026245117 -0.07519531
00000000: 0000 a23d 0000 cc3e 0000 3cbc 0000 cdbd
00000010: 0000 413e 0000 2d3c 0000 33bd 0000 4cbe
00000020: 0000 11be 0000 a4bd 0000 6dbd 0000 d33e
00000030: 0000 103e 0000 0ebe 0000 1bbe 0000 003d
00000040: 0000 91bd 0000 ccbe 0000 4cbc 0000 cb3e
00000050: 0000 d93c 0000 473e 0000 033c 0000 ab3d
00000060: 0000 b53e 0000 d43e 0000 f2bb 0000 25bf
00000070: 0000 773e 0000 1dbd 0000 68bd 0000 e03d
00000080: 0000 07be 0000 283e 0000 133e 0000 0f3e
00000090: 0000 213e 0000 503e 0000 203e 0000 b2be
000000a0: 0000 a7be 0000 423d 0000 15bd 0000 9d3d
000000b0: 0000 d9bd 0000 313e 0000 c83d 0000 e23c
000000c0: 0000 0a3f 0000 db3d 0000 96be 0000 243e
000000d0: 0000 8ebe 0000 c2bc 0000 d83e 0000 b53e
000000e0: 0000 603d 0000 193e 0000 3e3e 0000 063e
000000f0: 0000 d23b 0000 cbbd 0000 443e 0000 683d
00000100: 0000 8d3b 0000 37be 0000 4e3e 0000 7dbd
00000110: 0000 393e 0000 953e 0000 293e 0000 103e
00000120: 0000 8e3d 0000 d1ba 0000 82b8 0000 363e
00000130: 0000 343e 0000 a5bd 0000 78be 0000 e4bd
00000140: 0000 5dbe 0000 8fbe 0000 33be 0000 da3d
00000150: 0000 8f3e 0000 20be 0000 6cbd 0000 363d
00000160: 0000 71bb 0000 173e 0000 93be 0000 8fbe
00000170: 0000 a03d 0000 e53c 0000 94be 0000 89be
00000180: 0000 763d 0000 55be 0000 b1bb 0000 97be
00000190: 0000 5f3d 0000 753c 0000 95be 0000 5f3d
000001a0: 0000 8dbb 0000 cdbc 0000 253e 0000 72bd
000001b0: 0000 64be 0000 3ebd 0000 68be 0000 1dbf
000001c0: 0000 0fbe 0000 82be 0000 853e 0000 513e
000001d0: 0000 cdbd 0000 233e 0000 0bbd 0000 98be
000001e0: 0000 28be 0000 823e 0000 dc3e 0000 9fbe
000001f0: 0000 c33b 0000 9ebd 0000 34be 0000 11bd
00000200: 0000 b6bd 0000 b13e 0000 f13d 0000 173d
00000210: 0000 c5bd 0000 353d 0000 8e3e 0000 dc3d
00000220: 0000 debe 0000 c7bd 0000 01bf 0000 e93d
00000230: 0000 3bbe 0000 f8bd 0000 d7bc 0000 9abd

transformer.h.0.mlp.c_fc.bias f4 [48]
-0.045410156 -0.17089844 0.008483887 -0.31054688 -0.2109375 0.059570312 -0.21875 -0.020507812
0.00041389465 -0.23730469 -0.4609375 -0.13476562 -0.13378906 -0.12402344 -0.111328125 -0.25976562
-0.13085938 -0.017089844 0.03564453 -0.28320312 -0.22753906 0.1171875 -0.20800781 -0.008056641
0.100097656 -0.20703125 -0.35742188 -0.38085938 -0.15234375 -0.08251953 -0.060546875 0.07910156
-0.2578125 -0.41601562 -0.32421875 -0.37109375 -0.24511719 0.033203125 -0.122558594 -0.34960938
-0.07421875 -0.22167969 0.00970459 -0.34375 0.07470703 -0.39648438 0.007446289 -0.004333496
00000000: 0000 3abd 0000 2fbe 0000 0b3c 0000 9fbe
00000010: 0000 58be 0000 743d 0000 60be 0000 a8bc
00000020: 0000 d939 0000 73be 0000 ecbe 0000 0abe
00000030: 0000 09be 0000 febd 0000 e4bd 0000 85be
00000040: 0000 06be 0000 8cbc 0000 123d 0000 91be
00000050: 0000 69be 0000 f03d 0000 55be 0000 04bc
00000060: 0000 cd3d 0000 54be 0000 b7be 0000 c3be
00000070: 0000 1cbe 0000 a9bd 0000 78bd 0000 a23d
00000080: 0000 84be 0000 d5be 0000 a6be 0000 bebe
00000090: 0000 7bbe 0000 083d 0000 fbbd 0000 b3be
000000a0: 0000 98bd 0000 63be 0000 1f3c 0000 b0be
000000b0: 0000 993d 0000 cbbe 0000 f43b 0000 8ebb

transformer.h.0.ln_1.bias f4 [12]
-0.19140625 0.5 -0.09423828 0.096191406 0.21679688 -0.064941406 -0.19238281 0.22558594
-0.29296875 -0.25390625 0.012145996 -0.17773438
00000000: 0000 44be 0000 003f 0000 c1bd 0000 c53d
00000010: 0000 5e3e 0000 85bd 0000 45be 0000 673e
00000020: 0000 96be 0000 82be 0000 473c 0000 36be

transformer.h.0.mlp.c_fc.weight f4 [12, 48]
0.24804688 -0.07470703 -0.059570312 0.5234375 -0.40625 -0.4609375 -0.039794922 0.421875
-0.3046875 0.057128906 0.29882812 0.35742188 0.023803711 0.390625 0.26171875 -0.203125
-0.20703125 0.16210938 0.08984375 -0.111328125 -0.024047852 0.20996094 -0.28515625 -0.2734375
-0.49609375 0.16113281 0.005554199 0.10546875 0.20507812 0.12792969 0.41601562 0.16308594
0.140625 0.140625 -0.37109375 -0.05517578 -0.09472656 -0.11621094 0.05834961 -0.328125
-0.5390625 -0.032714844 0.07324219 0.051513672 0.24707031 0.140625 0.08251953 0.20703125
0.69921875 -0.24804688 0.05078125 0.37890625 0.083496094 -0.28320312 0.110839844 -0.28515625
-0.26171875 0.34179688 0.029296875 -0.3125 -0.0077819824 0.16894531 0.22265625 0.026977539
0.063964844 0.09375 0.31835938 -0.20019531 0.3046875 0.21386719 -0.20410156 0.08203125
-0.375 0.18847656 -0.016723633 0.2890625 -0.21777344 -0.24316406 0.038085938 0.2265625
-0.04248047 0.20996094 -0.13085938 -0.00982666 -0.044677734 -0.1171875 -0.048339844 -0.19921875
0.10595703 -0.33398438 0.6015625 -0.13476562 0.22167969 0.19726562 -0.3203125 0.390625
-0.16796875 0.041503906 -0.17285156 0.21289062 -0.22558594 -0.1640625 0.30078125 -0.07080078
0.0115356445 -0.19726562 0.20410156 -0.20703125 0.31835938 -0.41601562 -0.059814453 -0.43359375
0.079589844 -0.056640625 0.3515625 -0.20898438 0.08105469 -0.11035156 0.125 -0.056396484
-0.24316406 -0.14453125 -0.07080078 0.087402344 -0.15039062 0.25585938 -0.15722656 0.17382812
0.18261719 0.19335938 -0.39648438 -0.080566406 0.31054688 0.10986328 -0.021118164 -0.203125
0.265625 -0.018310547 0.16210938 -0.020874023 0.17480469 0.29882812 -0.34765625 -0.25585938
0.28125 -0.24414062 0.26953125 -0.23242188 0.16015625 -0.16894531 0.31445312 0.03564453
-0.28125 -0.38085938 0.3359375 0.33789062 0.20410156 -0.08496094 0.115234375 -0.12597656
-0.0040893555 -0.2890625 -0.34179688 -0.12890625 0.09667969 -0.21972656 -0.3125 0.47070312
0.076660156 -0.2890625 -0.0625 0.029663086 0.06689453 -0.060791016 -0.018798828 -0.020751953
-0.42382812 -0.2890625 -0.023071289 -0.30664062 -0.022827148 0.19238281 -0.14160156 0.33398438
-0.060791016 0.021484375 -0.060791016 0.22753906 -0.3203125 -0.1328125 0.20800781 -0.26757812
-0.010559082 0.14550781 0.22558594 -0.06347656 0.22851562 0.03515625 0.1171875 -0.21582031
-0.3203125 0.037841797 0.12792969 0.2890625 0.19726562 0.045898438 0.11230469 -0.43554688
0.41601562 -0.4765625 0.25585938 -0.24414062 -0.5625 0.114746094 -0.10107422 -0.3125
0.16503906 -0.15039062 0.107421875 -0.16308594 0.19238281 0.27734375 0.76171875 0.28320312
0.013793945 0.54296875 0.17675781 0.25 -0.19726562 0.29101562 -0.18164062 0.041503906
0.40039062 -0.04248047 0.34765625 -0.111816406 -0.063964844 0.18652344 -0.028076172 0.15039062
-0.29101562 0.17773438 -0.33007812 -0.06347656 -0.18457031 0.23242188 -0.15136719 -0.19238281
-0.29296875 0.103515625 -0.14648438 0.15429688 0.083496094 -0.22949219 0.13085938 -0.25976562
00000000: 0000 7e3e 0000 99bd 0000 74bd 0000 063f
00000010: 0000 d0be 0000 ecbe 0000 23bd 0000 d83e
00000020: 0000 9cbe 0000 6a3d 0000 993e 0000 b73e
00000030: 0000 c33c 0000 c83e 0000 863e 0000 50be
00000040: 0000 54be 0000 263e 0000 b83d 0000 e4bd
00000050: 0000 c5bc 0000 573e 0000 92be 0000 8cbe
00000060: 0000 febe 0000 253e 0000 b63b 0000 d83d
00000070: 0000 523e 0000 033e 0000 d53e 0000 273e
00000080: 0000 103e 0000 103e 0000 bebe 0000 62bd
00000090: 0000 c2bd 0000 eebd 0000 6f3d 0000 a8be
000000a0: 0000 0abf 0000 06bd 0000 963d 0000 533d
000000b0: 0000 7d3e 0000 103e 0000 a93d 0000 543e
000000c0: 0000 333f 0000 7ebe 0000 503d 0000 c23e
000000d0: 0000 ab3d 0000 91be 0000 e33d 0000 92be
000000e0: 0000 86be 0000 af3e 0000 f03c 0000 a0be
000000f0: 0000 ffbb 0000 2d3e 0000 643e 0000 dd3c
00000100: 0000 833d 0000 c03d 0000 a33e 0000 4dbe
00000110: 0000 9c3e 0000 5b3e 0000 51be 0000 a83d
00000120: 0000 c0be 0000 413e 0000 89bc 0000 943e
00000130: 0000 5fbe 0000 79be 0000 1c3d 0000 683e
00000140: 0000 2ebd 0000 573e 0000 06be 0000 21bc
00000150: 0000 37bd 0000 f0bd 0000 46bd 0000 4cbe
00000160: 0000 d93d 0000 abbe 0000 1a3f 0000 0abe
00000170: 0000 633e 0000 4a3e 0000 a4be 0000 c83e
00000180: 0000 2cbe 0000 2a3d 0000 31be 0000 5a3e
00000190: 0000 67be 0000 28be 0000 9a3e 0000 91bd
000001a0: 0000 3d3c 0000 4abe 0000 513e 0000 54be
000001b0: 0000 a33e 0000 d5be 0000 75bd 0000 debe
000001c0: 0000 a33d 0000 68bd 0000 b43e 0000 56be
000001d0: 0000 a63d 0000 e2bd 0000 003e 0000 67bd
000001e0: 0000 79be 0000 14be 0000 91bd 0000 b33d
000001f0: 0000 1abe 0000 833e 0000 21be 0000 323e
00000200: 0000 3b3e 0000 463e 0000 cbbe 0000 a5bd
00000210: 0000 9f3e 0000 e13d 0000 adbc 0000 50be
00000220: 0000 883e 0000 96bc 0000 263e 0000 abbc
00000230: 0000 333e 0000 993e 0000 b2be 0000 83be
00000240: 0000 903e 0000 7abe 0000 8a3e 0000 6ebe
00000250: 0000 243e 0000 2dbe 0000 a13e 0000 123d
00000260: 0000 90be 0000 c3be 0000 ac3e 0000 ad3e
00000270: 0000 513e 0000 aebd 0000 ec3d 0000 01be
00000280: 0000 86bb 0000 94be 0000 afbe 0000 04be
00000290: 0000 c63d 0000 61be 0000 a0be 0000 f13e
000002a0: 0000 9d3d 0000 94be 0000 80bd 0000 f33c
000002b0: 0000 893d 0000 79bd 0000 9abc 0000 aabc
000002c0: 0000 d9be 0000 94be 0000 bdbc 0000 9dbe
000002d0: 0000 bbbc 0000 453e 0000 11be 0000 ab3e
000002e0: 0000 79bd 0000 b03c 0000 79bd 0000 693e
000002f0: 0000 a4be 0000 08be 0000 553e 0000 89be
00000300: 0000 2dbc 0000 153e 0000 673e 0000 82bd
00000310: 0000 6a3e 0000 103d 0000 f03d 0000 5dbe
00000320: 0000 a4be 0000 1b3d 0000 033e 0000 943e
00000330: 0000 4a3e 0000 3c3d 0000 e63d 0000 dfbe
00000340: 0000 d53e 0000 f4be 0000 833e 0000 7abe
00000350: 0000 10bf 0000 eb3d 0000 cfbd 0000 a0be
00000360: 0000 293e 0000 1abe 0000 dc3d 0000 27be
00000370: 0000 453e 0000 8e3e 0000 433f 0000 913e
00000380: 0000 623c 0000 0b3f 0000 353e 0000 803e
00000390: 0000 4abe 0000 953e 0000 3abe 0000 2a3d
000003a0: 0000 cd3e 0000 2ebd 0000 b23e 0000 e5bd
000003b0: 0000 83bd 0000 3f3e 0000 e6bc 0000 1a3e
000003c0: 0000 95be 0000 363e 0000 a9be 0000 82bd
000003d0: 0000 3dbe 0000 6e3e 0000 1bbe 0000 45be
000003e0: 0000 96be 0000 d43d 0000 16be 0000 1e3e
000003f0: 0000 ab3d 0000 6bbe 0000 063e 0000 85be

transformer.wpe.weight f4 [10, 12]
0.107910156 -0.73046875 0.019897461 -0.12890625 -0.09814453 0.15625 0.040039062 -0.34960938
0.059814453 0.48242188 -0.12988281 0.11376953 0.09765625 0.31640625 0.020629883 0.04248047
0.16894531 -0.34765625 -0.16992188 -0.30078125 0.53515625 0.16113281 -0.08154297 -0.14941406
0.10986328 -0.33007812 -0.12890625 0.04736328 0.5859375 -0.05517578 -0.059570312 0.13378906
0.06933594 -0.09423828 -0.23925781 0.05444336 -0.052978516 -0.061279297 -0.26367188 0.57421875
0.35546875 -0.29296875 0.09765625 0.23632812 0.04736328 -0.3203125 -0.17675781 0.43945312
-0.38867188 0.21484375 -0.27929688 0.35546875 -0.17578125 -0.18359375 0.15625 -0.111816406
-0.3359375 0.047851562 -0.48632812 -0.24902344 -0.7109375 -0.07714844 -0.19042969 -0.27539062
0.12597656 -0.61328125 -0.3671875 -0.16210938 0.11621094 -0.6796875 -0.33398438 0.11328125
0.8046875 0.036621094 0.57421875 0.67578125 -0.03466797 0.30273438 -0.41992188 -0.2421875
-0.05834961 0.07763672 -0.12695312 -0.30859375 0.64453125 -0.12890625 0.078125 -0.5546875
0.33398438 0.30273438 -0.58203125 -0.22363281 -1.125 -0.47070312 -0.29882812 0.18359375
0.050048828 -0.6328125 0.014099121 -0.19824219 0.0021514893 -0.1328125 0.14453125 -0.33203125
-0.4375 -0.056152344 0.018920898 -0.15429688 0.0008277893 0.20019531 0.1953125 -0.0059814453
-0.21582031 0.04663086 0.1015625 -0.08691406 -0.36328125 -0.609375 -0.04296875 -0.16992188
00000000: 0000 dd3d 0000 3bbf 0000 a33c 0000 04be
00000010: 0000 c9bd 0000 203e 0000 243d 0000 b3be
00000020: 0000 753d 0000 f73e 0000 05be 0000 e93d
00000030: 0000 c83d 0000 a23e 0000 a93c 0000 2e3d
00000040: 0000 2d3e 0000 b2be 0000 2ebe 0000 9abe
00000050: 0000 093f 0000 253e 0000 a7bd 0000 19be
00000060: 0000 e13d 0000 a9be 0000 04be 0000 423d
00000070: 0000 163f 0000 62bd 0000 74bd 0000 093e
00000080: 0000 8e3d 0000 c1bd 0000 75be 0000 5f3d
00000090: 0000 59bd 0000 7bbd 0000 87be 0000 133f
000000a0: 0000 b63e 0000 96be 0000 c83d 0000 723e
000000b0: 0000 423d 0000 a4be 0000 35be 0000 e13e
000000c0: 0000 c7be 0000 5c3e 0000 8fbe 0000 b63e
000000d0: 0000 34be 0000 3cbe 0000 203e 0000 e5bd
000000e0: 0000 acbe 0000 443d 0000 f9be 0000 7fbe
000000f0: 0000 36bf 0000 9ebd 0000 43be 0000 8dbe
00000100: 0000 013e 0000 1dbf 0000 bcbe 0000 26be
00000110: 0000 ee3d 0000 2ebf 0000 abbe 0000 e83d
00000120: 0000 4e3f 0000 163d 0000 133f 0000 2d3f
00000130: 0000 0ebd 0000 9b3e 0000 d7be 0000 78be
00000140: 0000 6fbd 0000 9f3d 0000 02be 0000 9ebe
00000150: 0000 253f 0000 04be 0000 a03d 0000 0ebf
00000160: 0000 ab3e 0000 9b3e 0000 15bf 0000 65be
00000170: 0000 90bf 0000 f1be 0000 99be 0000 3c3e
00000180: 0000 4d3d 0000 22bf 0000 673c 0000 4bbe
00000190: 0000 0d3b 0000 08be 0000 143e 0000 aabe
000001a0: 0000 e0be 0000 66bd 0000 9b3c 0000 1ebe
000001b0: 0000 593a 0000 4d3e 0000 483e 0000 c4bb
000001c0: 0000 5dbe 0000 3f3d 0000 d03d 0000 b2bd
000001d0: 0000 babe 0000 1cbf 0000 30bd 0000 2ebe

transformer.ln_f.bias f4 [12]
-0.046142578 0.09716797 -0.044433594 -0.030029297 -0.03149414 0.057128906 0.111816406 -0.061279297
-0.10644531 -0.25585938 -0.11767578 -0.038085938
00000000: 0000 3dbd 0000 c73d 0000 36bd 0000 f6bc
00000010: 0000 01bd 0000 6a3d 0000 e53d 0000 7bbd
00000020: 0000 dabd 0000 83be 0000 f1bd 0000 1cbd

transformer.h.0.ln_2.bias f4 [12]
-0.075683594 0.026977539 -0.13671875 -0.0703125 0.036376953 0.01977539 0.014282227 -0.015197754
-0.00065612793 -0.115234375 -0.09082031 -0.06640625
00000000: 0000 9bbd 0000 dd3c 0000 0cbe 0000 90bd
00000010: 0000 153d 0000 a23c 0000 6a3c 0000 79bc
00000020: 0000 2cba 0000 ecbd 0000 babd 0000 88bd

transformer.wte.weight f4 [10, 12]
0.17089844 -0.73828125 0.42773438 -0.38867188 -0.23925781 0.055908203 0.265625 -0.24023438
0.484375 0.45117188 0.036132812 0.36914062 0.20019531 0.63671875 -0.03881836 0.034423828
0.29101562 -0.18359375 -0.080566406 -0.46289062 0.3515625 0.060546875 -0.08496094 0.20410156
0.31445312 0.19042969 -0.26171875 -0.061035156 0.35742188 0.0047302246 -0.09423828 -0.0032196045
0.17675781 -0.24804688 -0.19433594 -0.04638672 0.10888672 0.0054626465 -0.010864258 0.5546875
-0.0032043457 -0.41015625 0.26171875 0.25 0.038330078 -0.036621094 -0.059570312 0.24511719
-0.60546875 0.20214844 -0.26757812 -0.09472656 -0.28320312 0.08691406 0.25976562 0.057861328
-0.32617188 0.0007095337 -0.06689453 -0.11767578 -0.59765625 -0.125 -0.071777344 0.16796875
0.011291504 -0.23242188 0.024902344 -0.16210938 0.30859375 -0.38867188 -0.22167969 0.11035156
0.265625 0.12890625 0.34570312 0.56640625 0.40429688 0.41601562 -0.007019043 -0.09667969
-0.21972656 0.042236328 0.084472656 -0.2421875 0.7578125 0.50390625 -0.12988281 -0.5390625
0.42382812 0.4296875 -0.390625 -0.23535156 -0.71484375 -0.1328125 0.10253906 0.3671875
-0.038085938 -0.21679688 0.08300781 -0.17871094 -0.20410156 -0.16992188 0.32617188 -0.3125
-0.23730469 -0.16796875 0.012939453 0.010192871 0.359375 0.13671875 0.19335938 -0.13867188
-0.07421875 0.07714844 0.06640625 -0.07910156 -0.25 -0.12988281 -0.14941406 0.072753906
00000000: 0000 2f3e 0000 3dbf 0000 db3e 0000 c7be
00000010: 0000 75be 0000 653d 0000 883e 0000 76be
00000020: 0000 f83e 0000 e73e 0000 143d 0000 bd3e
00000030: 0000 4d3e 0000 233f 0000 1fbd 0000 0d3d
00000040: 0000 953e 0000 3cbe 0000 a5bd 0000 edbe
00000050: 0000 b43e 0000 783d 0000 aebd 0000 513e
00000060: 0000 a13e 0000 433e 0000 86be 0000 7abd
00000070: 0000 b73e 0000 9b3b 0000 c1bd 0000 53bb
00000080: 0000 353e 0000 7ebe 0000 47be 0000 3ebd
00000090: 0000 df3d 0000 b33b 0000 32bc 0000 0e3f
000000a0: 0000 52bb 0000 d2be 0000 863e 0000 803e
000000b0: 0000 1d3d 0000 16bd 0000 74bd 0000 7b3e
000000c0: 0000 1bbf 0000 4f3e 0000 89be 0000 c2bd
000000d0: 0000 91be 0000 b23d 0000 853e 0000 6d3d
000000e0: 0000 a7be 0000 3a3a 0000 89bd 0000 f1bd
000000f0: 0000 19bf 0000 00be 0000 93bd 0000 2c3e
00000100: 0000 393c 0000 6ebe 0000 cc3c 0000 26be
00000110: 0000 9e3e 0000 c7be 0000 63be 0000 e23d
00000120: 0000 883e 0000 043e 0000 b13e 0000 113f
00000130: 0000 cf3e 0000 d53e 0000 e6bb 0000 c6bd
00000140: 0000 61be 0000 2d3d 0000 ad3d 0000 78be
00000150: 0000 423f 0000 013f 0000 05be 0000 0abf
00000160: 0000 d93e 0000 dc3e 0000 c8be 0000 71be
00000170: 0000 37bf 0000 08be 0000 d23d 0000 bc3e
00000180: 0000 1cbd 0000 5ebe 0000 aa3d 0000 37be
00000190: 0000 51be 0000 2ebe 0000 a73e 0000 a0be
000001a0: 0000 73be 0000 2cbe 0000 543c 0000 273c
000001b0: 0000 b83e 0000 0c3e 0000 463e 0000 0ebe
000001c0: 0000 98bd 0000 9e3d 0000 883d 0000 a2bd
000001d0: 0000 80be 0000 05be 0000 19be 0000 953d

transformer.ln_f.weight f4 [12]
1.828125 2.640625 1.5546875 2.0625 2.796875 2.625 2.21875 3.109375
3.015625 2.0 1.875 1.515625
00000000: 0000 ea3f 0000 2940 0000 c73f 0000 0440
00000010: 0000 3340 0000 2840 0000 0e40 0000 4740
00000020: 0000 4140 0000 0040 0000 f03f 0000 c23f
