program/app/src/test/resources/transformer/_2018_06_openai_gpt1/test.safetensors (safetensors, 9630 bytes, 14 tensors)

h.0.attn.c_proj.weight f4 [12, 12]
00000000: 7a20 133d 0e47 8c3a 7db4 f93c dec5 05be
00000010: 7527 86bc a0b8 163c 1ca3 053b d866 e43c
00000020: d535 2c3a 8599 8dbc 56f1 19bc f030 343d
00000030: 59af 383d 4f52 673d 7597 0c3d c00d bd3c
00000040: 3ec9 ffbb be22 d03c b234 373a aadb acbb
00000050: e924 193e f7de 55bb 5bb7 e83a bf9a 5dbb
00000060: 04d2 36bc 8b5a e0bd 6c31 84bd 6f45 1c3c
00000070: 0e08 6abb b072 bebb 18e1 b23b 4809 bcbd
00000080: 0345 a5bc 4f27 943c 8744 273d f538 6dbd
00000090: b4ae 563c f963 14bc f565 e03c 4273 8e3c
000000a0: f835 a53c c4fd 60bc 7e68 8c3d 1571 ae3d
000000b0: 00cb 0ebd 2bea 9abd f874 7f3c d189 85bc
000000c0: 7678 1c3d c8d4 b3ba 4745 76bc 6728 81bc
000000d0: dcc3 0a3d 6bfa 26bc 9c14 a5bc b3a5 3bbe
000000e0: ab96 223d 6e74 633c 6963 c13a 4d1d b8bc
000000f0: 1903 d43b 5053 04bc daae c33d 98de 8b3b
00000100: 48ea 40bc 1d8f 043c 0b1c a5bd f0ff 9b3c
00000110: a274 843c a398 28bd 2bee 06bb bde9 3ebc
00000120: 5309 023d 25ef 12bd ba39 993d 0167 1c3d
00000130: 0617 693d 342e 2abc e697 9dbd a416 5e3d
00000140: 3e2b 873d c22b f0bd 4104 41bb 355a 0a3d
00000150: 7df3 0f3d b5c4 8a3c c32a 69bc 8e8f 72bc
00000160: 0310 ba3d e67f 0c3e 02a2 baba d322 a1ba
00000170: f12b 3f3a 5920 0d3b 442e f63b fa24 2bbd
00000180: 03ff 2e3c e064 e33b 39bb 4c3e 2eb5 29bc
00000190: 1d49 083d 4f7f 873d 1901 5bbd 58aa 0fbd
000001a0: b7e5 bf3c cb81 c53c 0a3a a03b 1519 e0bc
000001b0: aa89 b0bb e804 24bd 1caf dabc 2f4f 4f3b
000001c0: 1010 32bc 7e83 703d 6960 723d cfac 29bc
000001d0: 6075 ccbd 71f1 893d 724b 003d 255f c5bc
000001e0: 8332 4c3d 37e0 f1bc eae7 83bd 0016 bb3c
000001f0: ac17 ca3c b032 66bc 67be 47bd d780 a8bc
00000200: ee5c 613c e76d 8ebd 0ed5 b8bc feb2 a1bc
00000210: d12a b1bc f7f1 5d3c eb26 8c3d 6d7f c93c
00000220: f4c4 ba3c 5648 4b3c ce30 643c 09dc 11bd
00000230: 7571 ea3c 7595 223d 99bb b3bc ed19 8a3d
0.035919644 0.0010702328 0.030481571 -0.13063762 -0.016376236 0.0091992915 0.002039141 0.027881071
0.0006569301 -0.017285118 -0.009395918 0.043991983 0.0450891 0.05647498 0.03432413 0.023077846
-0.0078059724 0.025407191 0.0006988748 -0.0052752094 0.14955486 -0.0032634118 0.001775484 -0.003381416
-0.01115847 -0.1095477 -0.06454739 0.009538039 -0.0035710367 -0.0058120117 0.005458962 -0.09181458
-0.020174509 0.01808515 0.040836837 -0.057915647 0.013103176 -0.009057038 0.027392367 0.017388944
0.020167336 -0.013732377 0.06855868 0.085176624 -0.034861565 -0.07564195 0.015591852 -0.016301068
0.038200818 -0.001372003 -0.015031165 -0.015766336 0.033878192 -0.01019154 -0.020151429 -0.18324928
0.03969447 0.0138827395 0.0014754358 -0.02247491 0.006470096 -0.008076504 0.09554835 0.0042684786
-0.011774607 0.0080907615 -0.080619894 0.019042939 0.016168896 -0.04116119 -0.0020588737 -0.011652407
0.031747174 -0.035872597 0.074817136 0.03818417 0.056906722 -0.010386992 -0.07694988 0.05422081
0.06600045 -0.11727096 -0.0029451998 0.033777434 0.035144318 0.0169395 -0.014231387 -0.014804734
0.09085085 0.13720664 -0.0014238956 -0.0012293704 0.00072926196 0.0021534173 0.0075128395 -0.04178331
0.010680917 0.0069395155 0.19993295 -0.010358138 0.03327285 0.06616079 -0.053467844 -0.03507456
0.023424966 0.024109742 0.0048897313 -0.02735571 -0.0053875046 -0.04004374 -0.026694827 0.003163289
-0.010868087 0.05871915 0.059173975 -0.010356142 -0.09983325 0.067355044 0.03132195 -0.02409322
0.04985286 -0.02952586 -0.064407185 0.022837639 0.02466949 -0.014050171 -0.048765566 -0.020569248
0.013755066 -0.06954556 -0.02256253 -0.01973867 -0.021626862 0.013546458 0.068433605 0.024596894
0.022798993 0.012407383 0.013927652 -0.035610233 0.028618554 0.039693315 -0.02194004 0.06743226

h.0.mlp.c_proj.bias f4 [12]
00000000: 988f 06be fa9b e93b 4cde b8bc 08b3 cc3c
00000010: f240 33be 1c7c b13d 9e5e 16bd e640 67bb
00000020: c6e9 41bc 4b8c 14be e0d8 96bd dc3c 83bd
-0.13140714 0.0071291896 -0.022566937 0.024987713 -0.17505243 0.0866625 -0.036711328 -0.0035286485
-0.011835521 -0.14506643 -0.073655844 -0.064080924

h.0.mlp.c_proj.weight f4 [48, 12]
00000000: 2871 253b 7a96 0dbd ca62 293c a0a1 6b3c
00000010: 08f1 3bbd 30b0 303c dbf0 fb3b 4b0a 653b
00000020: 3918 b0bc 88c8 0f3d ff3e 30bd accc 133b
00000030: 5cb7 863c cd73 f0bc bc55 10bd 4dee 2ebc
00000040: 79da ea3c c862 973d 513a 89bd 9d4a cdbd
00000050: 69f1 883c bdc5 7fbb c124 16bd bf77 773c
00000060: 2174 d73c 4b21 80bc 24a3 32bd 838e 96bc
00000070: 4e64 2e3d 39ee 413d 8bb8 403d 81d0 ecbc
00000080: cf5f acbd 86f3 963c 6012 e5bc a3e3 2bbc
00000090: 48e3 85bc 2b8d 25bd c5a3 643b 6fb8 19bd
000000a0: 2cca a4bb 0916 db3c fea8 b7bd 91d6 9cbb
000000b0: 2c59 9b3d e3b7 433d 44bd 18bc 2585 e5bc
000000c0: 1ed6 40bd dbf1 6b3d 0cdc 7bbc 13c4 d4b9
000000d0: 4c21 05bd 0164 ce3d f72b fd3c a008 c0bc
000000e0: ca2f 393c 441f 8a3d af07 7b3c 6a24 a33c
000000f0: 27e2 5c3d 9d82 cabc d812 9cbc b9b5 fd3b
00000100: c0b2 8d3c 7584 553d be82 a7bd 569e 6dbd
00000110: 0127 2e3c d6ea 14be 20c0 043d b8c8 8e3d
00000120: fc10 813d 17b7 4a3d e587 c33c efdb c7bc
00000130: ccc5 1bbd 4d7f c73c f8b7 1939 044c 2b3d
00000140: df73 683d 3428 9cbc 55cd a7bd 0d6b 64bd
00000150: 894c 283c ff22 ccbc e148 583d d787 033d
00000160: d455 bdbc 74c4 b9bc 6216 8037 ca80 303d
00000170: 248f 1c3d 5e64 b7bd 3ba5 a83b d760 07bd
00000180: 7316 2bbd dfa0 8f3d 416a cfbc 36c3 493d
00000190: 5042 ce3d 9f73 5e3d 61d8 60bd 723f 3ebc
000001a0: 9d9d 323d fb79 f93c 835a 853d 7569 723d
000001b0: f376 f03c b346 813c 4f4b 0e3c 916d f9bc
000001c0: 34ac a33d ada5 0abd f447 6bbd 8338 363b
000001d0: ed25 f23a c45a 3cbb a8e6 8ebb 9f8e 5cbc
000001e0: 96a4 7b3c 851c 8abd 2c27 57bd 28f1 c23a
000001f0: bcde cfbc 92c3 993c 02c3 2abd 61b6 db3c
00000200: f054 ac3c 54f4 2a3c a6a1 03bd ed4e 3b3c
00000210: 3c7d bebc d129 83bd 7aca 2b3c b98e f7ba
00000220: 1fe1 1b3d 5945 8bbd 23c6 88bb 27a6 1cbd
00000230: 3b6e 283a 88ee 4fbd 852e 78bd c3de 34bd
00000240: f36f 80bd a216 d73b f501 ec3b f867 da3c
00000250: 4964 2bbd 5913 523b d089 2ebd 063c 6f3c
00000260: 33a8 61bc b0db f0bb cf11 e03c 2521 b6bc
00000270: b05f 9e3d 9340 913c 74c2 a63c e61e debc
00000280: 9d6b 17bc 903a 7c3c d4dd 90bd 5e71 0fbd
00000290: 7e1f 243c 5088 66bc 769d 03bb 5416 4137
000002a0: 2581 a5bc af2f 3abd 38a7 89bd 2ff2 ee3c
000002b0: 3ca2 05bd 9974 313c a034 3d3d 3ae3 9abc
000002c0: ccad b3bc 88c5 97bb af9c 7c3d a643 863d
000002d0: b0a4 89bc 3033 763d 05ac 5dbd b7c0 743b
000002e0: 931b fabc 5f49 54ba f39c bf3c 6ec5 febc
000002f0: 047d 923c b591 5dbd 8c9d a5bd f5c9 6dbd
00000300: 333b e93c b92a 77bc 1140 cd3c f0a0 f0bb
00000310: d936 a53c f661 e43c ce57 27bd 6fc8 873d
00000320: 4d65 e53c 91a2 a1bc 0c1d 123d ca12 53bd
00000330: ecc2 313b d59d 1bbd 66a9 1ebc 0064 803d
00000340: ea03 ac3b 51d7 e93d b9b7 1c3d 02f3 773d
00000350: 5504 293d bfd7 763d ca3d 813c 0f10 e13b
00000360: 4540 9a3d fb0d 073d 9eb8 fabc 865c 10bc
00000370: 7ca0 503b c810 d43c 6343 71bd 1814 1ebd
00000380: 8573 073c f162 81bc 5a41 d93b 82d0 b5bc
00000390: a93f a4bb 0cf0 e83c 3a41 143d cdc5 873b
000003a0: b528 fcbc 38f0 61bb 95ff 14bc 425f 8bbb
000003b0: b064 36bd 36e9 85bd 58d9 e03c ee86 4a3d
000003c0: 702c 27bd 37aa 6bbd 4d35 553d c4dc 20bd
000003d0: 1203 6fbc 4dce bcbb ec34 1abc 0046 433d
000003e0: 762f 83bd 96ae afbd 1b93 23bb 3622 13bd
000003f0: 5a39 3bbc 33fd a0bd e025 8bbd 767b 763c
0.0025244448 -0.034567334 0.010338495 0.014381796 -0.045884162 0.010784194 0.0076886243 0.0034948762
-0.021495925 0.03510335 -0.043028828 0.0022552414 0.016444854 -0.029352093 -0.035238013 -0.0106769325
0.028668629 0.07391888 -0.06700576 -0.10023997 0.016716676 -0.0039027773 -0.036656145 0.015104233
0.026300492 -0.015640875 -0.043612614 -0.018378502 0.042576127 0.047346327 0.047050994 -0.028908016
-0.084167115 0.018426668 -0.027962863 -0.010491285 -0.016343728 -0.04041783 0.0034887653 -0.037529405
-0.0050289836 0.026743906 -0.089677796 -0.0047863205 0.075853676 0.04778279 -0.009322468 -0.02801759
-0.047079198 0.0576037 -0.0153722875 -0.00040581878 -0.032502457 0.10077668 0.030904753 -0.023441613
0.011302898 0.06744245 0.015321656 0.019914825 0.053926613 -0.024720484 -0.019051954 0.0077426103
0.017297149 0.052128274 -0.08179234 -0.05801233 0.010629416 -0.14542708 0.032409787 0.06971878
0.06302068 0.049491014 0.02386851 -0.024396865 -0.03803043 0.024352694 0.00014659751 0.04182054
0.05675113 -0.01906214 -0.08193461 -0.055766154 0.010272154 -0.024919031 0.052803878 0.03211197
-0.023112215 -0.022676684 1.5269212e-05 0.043091573 0.038222447 -0.089546904 0.00514665 -0.033051338
-0.041769456 0.070131056 -0.02531922 0.049258433 0.10071242 0.054309484 -0.054893855 -0.011611806
0.043607343 0.030453673 0.06511404 0.059182603 0.029353594 0.015780782 0.008684947 -0.030447753
0.079918295 -0.033849407 -0.057441667 0.002780468 0.0018474438 -0.0028740624 -0.0043609925 -0.013461738
0.015359065 -0.06743721 -0.05252759 0.0014872896 -0.025374763 0.018770013 -0.04168988 0.026820363
0.021036595 0.010434229 -0.03213658 0.011432392 -0.023253076 -0.0640446 0.010485286 -0.0018887139
0.03805649 -0.068003364 -0.0041740104 -0.038244393 0.0006425117 -0.05076459 -0.06059124 -0.044157755
-0.062713526 0.0065639773 0.0072023817 0.026660904 -0.041843686 0.003205499 -0.042611897 0.014601713
-0.013773012 -0.0073504075 0.027352242 -0.022232601 0.07733095 0.017730987 0.020356394 -0.027114343
-0.009241966 0.015394822 -0.0707356 -0.035020225 0.010017274 -0.014070585 -0.0020082868 1.1508895e-05
-0.020203182 -0.04545563 -0.067213476 0.029168217 -0.032625422 0.010831022 0.046192765 -0.018907178
-0.021933459 -0.004631702 0.061672863 0.06555872 -0.016802162 0.06010741 -0.05411913 0.0037346312
-0.030530727 -0.00080980913 0.023390269 -0.031100001 0.017881878 -0.054094035 -0.0808669 -0.05805393
0.028470611 -0.0150858695 0.025054963 -0.007343404 0.020167755 0.027878743 -0.04085522 0.066300265
0.028002406 -0.019730838 0.035672233 -0.05153159 0.002712424 -0.037992317 -0.009683942 0.062690735
0.00524949 0.114180215 0.03826115 0.060534485 0.041263897 0.060264345 0.015776534 0.0068683694
0.0753179 0.032972317 -0.03060561 -0.008811122 0.0031833937 0.025886908 -0.058902156 -0.03859338
0.008267288 -0.01579425 0.006630105 -0.02219415 -0.0050124717 0.028434776 0.036195017 0.0041434527
-0.03078113 -0.0034475457 -0.009094139 -0.004253299 -0.044529617 -0.06538622 0.027447388 0.049445085
-0.040813863 -0.057535376 0.052052785 -0.03927304 -0.014588134 -0.0057618977 -0.009412032 0.04767418
-0.06405537 -0.085782215 -0.0024959508 -0.035921298 -0.011427248 -0.07860794 -0.067943335 0.015044084

h.0.attn.c_proj.bias f4 [12]
00000000: 6c52 6f3c 0445 22bc d5db 03bb e7db b63b
00000010: 7d18 873c 035d 7f3c d0c3 15bb 5844 0dbb
00000020: 9daf 3dbc 0293 e83a 53db 0dbb 6019 143b
0.014607053 -0.00990415 -0.0020120044 0.0055804136 0.01649117 0.015586141 -0.002285231 -0.0021555629
-0.011577514 0.0017744007 -0.002164562 0.0022598132

h.0.attn.c_attn.bias f4 [36]
00000000: 59b1 a33f c01c a63d 9275 003f ab7e e23e
00000010: 6aae 0d3f 7aa2 e13e d3be 2e3c 99a1 9c3d
00000020: b3f4 27bf 393a 043f a98e 06bf e37e 153e
00000030: 1aaf 4bbf 8bbd f53e 67cc 8dbf 7fc0 0000
00000040: af1d 6abf 313a aabd 4181 e13e 0b81 c6be
00000050: 7856 2ebf ed1b 723e 3209 02bf 2979 593e
00000060: 1068 a83e 1c8f 20bf ad14 853d 1574 d9bd
00000070: e5d2 75be ebab af3e 389c 953e 3961 343d
00000080: cc03 08be 088e 57bf 26d3 0d3e f623 353f
1.2788497 0.081109524 0.501794 0.44237265 0.5534426 0.44069272 0.010665613 0.0764801
-0.65607756 0.5165134 -0.5256143 0.14599185 -0.7956406 0.47996172 -1.1078004 6.9055e-41
-0.91451544 -0.083118804 0.44043925 -0.38770327 -0.6810069 0.23643465 -0.5079528 0.21237625
0.32891893 -0.6271837 0.06498084 -0.10617844 -0.24006231 0.3431085 0.29220748 0.04403803
-0.13282698 -0.842011 0.13850078 0.70758

tokens_embed.weight f4 [10, 12]
00000000: 9016 3e3d 7c1f 03be 2b5f 7bbc 2d4d 833d
00000010: cac0 4bbd f9d1 abbc 52e2 033e 52cf 723d
00000020: 4edf a1bd b08a 37bd d246 f03b 8a93 a9bd
00000030: 8da9 8abd 49d1 42be 7bd9 8ebd 49ab 7c3d
00000040: 5907 bfbc e6a5 89bd 44a8 26bd c551 993d
00000050: 0979 9ebc 8011 d2bd b906 50bd 30a1 a1bd
00000060: ac03 2e3d 6294 e53d e9b0 89bc 10f8 bebd
00000070: 78c0 293e c0d4 6cbc 6ea2 233e 1d92 8c3d
00000080: 081f 96be 5c0c 8cbc 5322 063e 330a 08bb
00000090: cdb9 03bd dcd0 98bd c371 9bbd 7cee ea3d
000000a0: a7ab a13c 76d6 273d cb76 4c3d ea5a 8c3d
000000b0: ccf1 94bc fec9 353d 8021 2abd af9e d3bd
000000c0: 6885 ebbc 77c2 0a3d 1e0b d8bd 0d15 4f3d
000000d0: 1e20 19be 9aa8 853e a52c 88bd 7f5e 25be
000000e0: 9f2c 1ebd e889 43be fbac 1d3e 787e dd3d
000000f0: d0ba 473d d4a2 e8bd 99e7 15be 5548 43bd
00000100: cec5 aebd c5cd 92bd 0922 1dbd 611a e63d
00000110: 3c45 ef3c 233e 813c 8567 243e 327b b83c
00000120: 9355 01be 63c1 c13c b074 07be a46a 84bd
00000130: fcdd a6bd bb2f b93c 898a cebc deb2 863d
00000140: c57e 953c 47cf d1bc 12ea 473d 98bf 3b3d
00000150: 8ddd 563d 1d9f 103d 752f 3e3d 5ab8 b7bd
00000160: 3b32 53bd abc6 e3bd 903e bd3c 6b53 dabd
00000170: b4da 4cbc 4d63 1d3b 7ddb 6f3b 13f3 05bb
00000180: c9f2 353e e8e9 7bbe ed22 0f3e 4e4c 71bd
00000190: b0ab 2bbe d767 f6bd 8d64 cdbd 9c53 e6bc
000001a0: d5ed 8fbd 85a5 4bbe eaf8 073d def2 933d
000001b0: 9d73 47bd da0e af3d 8171 9cbd e9f1 9b3c
000001c0: dad6 083c 9af0 1a3d 4d2d b53d 0495 ad3c
000001d0: 267e 833d 9a19 433d 2533 adbd 7eb3 a4bd
0.046408236 -0.12804979 -0.015342514 0.064112045 -0.049744405 -0.020974146 0.12879303 0.059279747
-0.0790392 -0.044809997 0.007332661 -0.08280094 -0.067706205 -0.19025148 -0.06975075 0.061686788
-0.023318933 -0.06721096 -0.040687814 0.074862994 -0.019344823 -0.10257244 -0.05078766 -0.07892072
0.04248397 0.112099424 -0.01680799 -0.09324658 0.16577327 -0.01445502 0.15979931 0.068638064
-0.2932055 -0.017095737 0.13099031 -0.0020758032 -0.032159615 -0.07461712 -0.07590058 0.114712685
0.01973517 0.04097601 0.049917977 0.06853278 -0.018181704 0.044382088 -0.041535854 -0.10333001
-0.028750136 0.033876862 -0.105489954 0.050557185 -0.14953658 0.26105195 -0.0664914 -0.16149329
-0.038616773 -0.19095576 0.15398018 0.108151376 0.048762143 -0.11359182 -0.14639129 -0.047676403
-0.08533822 -0.07168154 -0.038362537 0.112355 0.029207818 0.0157767 0.16055115 0.022519682
-0.126303 0.023651784 -0.13228106 -0.064656526 -0.08147809 0.022605767 -0.025212543 0.06577085
0.018248925 -0.025611533 0.04880721 0.045837015 0.05245738 0.035307992 0.046431977 -0.08970709
-0.051561575 -0.11121877 0.023101121 -0.10660442 -0.012503315 0.0024015487 0.003659933 -0.0020439073
0.17768396 -0.24600947 0.13978167 -0.05891066 -0.16764712 -0.12031525 -0.10028944 -0.02811604
-0.07027785 -0.1988736 0.033196367 0.072240576 -0.04869424 0.085477546 -0.07638837 0.01903625
0.008352006 0.03782711 0.08846531 0.02118922 0.06420545 0.047631837 -0.08457021 -0.08042048

h.0.ln_1.bias f4 [12]
00000000: f865 3d3d c92d bc3d ec0f 9dba f325 00be
00000010: 2616 393f 0deb e3be 1539 5a3e 84ef 90bb
00000020: 50d1 783d 6846 1b3e 7aee 0ebe e988 a53e
0.046239823 0.0918842 -0.0011982895 -0.12514476 0.7229942 -0.44515267 0.21310838 -0.0044230837
0.06074649 0.15163577 -0.13958159 0.32331017

positions_embed.weight f4 [10, 12]
00000000: 2622 abb9 94bb 42bc 88e6 c53a f391 74bc
00000010: 8138 d83c fd3b 93bd ecb2 1a3a 120d 8ebd
00000020: 6094 a03b ae14 643c 47b8 b4bc c83e 743a
00000030: 0025 013d 6eaa 4abc 3d8c 393b fb90 493d
00000040: b8d2 003d 807d 11bd 4703 983d eed1 8ebb
00000050: e7b7 9a3c ed0b 3abc 0145 dbbc 5735 34bd
00000060: 5e78 cebc f4df 27be 9e29 27bc cab4 323d
00000070: 09d5 90bb 8112 97bc 61e4 c439 908a 0ebd
00000080: 8d0f cb3d 64df 4f3c afda 043d b7c6 123b
00000090: c4ab 2cbb 770c 54bc bd9d 5dbc c40f 7d3b
000000a0: 28da c9bb b5eb 2a3c a572 933b f7de e9bb
000000b0: 6678 8d3c d98d c33c 02e0 b33b 159f a2bc
000000c0: 733d 00bd ad34 b23c 7f3b 593a 0cc8 713c
000000d0: d646 853b ead7 debc 6703 72bb 073c 6c3e
000000e0: 815b e3bc 9896 41bd 877f 82bb 94e7 cb3c
000000f0: 428d 0fbd c9b7 13bc f888 b2bc 703d 093c
00000100: 7ea2 163c e079 f0bb ec43 98be cccc 733b
00000110: b9f9 a53b d093 8d3c 1127 283d 82d7 043b
00000120: 1d37 6fbc 95c6 ddbc 28c1 893c 4d48 a23c
00000130: f649 0dbd d990 303c de06 5c3c feb7 bc3c
00000140: b793 48bd 8971 dbbc 7cc3 1dbc 6afa 733c
00000150: c91b 523c 56b6 25ba 409c 12bd 375b bcbc
00000160: 49eb 41bd 030b a93d 055d d5bc 706a 9d3c
00000170: ca64 c8bc 9907 4dbc a731 8f3a 7fc0 0000
00000180: 13bf 4b3d e4ea 37bd 66a7 833b 84d3 adbc
00000190: c9cf c73d a850 fa3d 126f 04bd e973 e53b
000001a0: af4c 29bb f1c9 4b3d 66be e33c 4904 9e3b
000001b0: a282 69bd bec0 cdba 2236 d03c 85a0 25bc
000001c0: f575 cbbc 6648 5d3b 1b6e ae3c b010 23bc
000001d0: 6725 70bc 6219 b3bc 6771 9dbc 43b4 453c
-0.00032641104 -0.011885542 0.0015098611 -0.014927375 0.02639413 -0.07189176 0.0005901295 -0.06936087
0.0049005 0.013920946 -0.022060527 0.00093172165 0.031529427 -0.012369735 0.0028312348 0.04921053
0.031450957 -0.035520077 0.074225 -0.0043585217 0.01888652 -0.011355382 -0.026766302 -0.04399618
-0.02520388 -0.16394025 -0.010202793 0.043629445 -0.004419927 -0.01844144 0.0003755419 -0.034800112
0.099150755 0.012687538 0.032435115 0.0022396275 -0.0026347497 -0.012942425 -0.013526377 0.0038614133
-0.0061600395 0.0104321735 0.0044997507 -0.007137175 0.017269325 0.02387135 0.0054893503 -0.019851247
-0.031308603 0.021753633 0.00082867587 0.014757168 0.004067282 -0.027202565 -0.0036928297 0.23069774
-0.027753593 -0.047262758 -0.0039824876 0.024890698 -0.035046823 -0.009015986 -0.021793827 0.008376464
0.009194015 -0.0073387474 -0.2973932 0.0037200926 0.0050651697 0.017282397 0.04105288 0.0020270054
-0.014600542 -0.02707223 0.016815737 0.019809866 -0.034494363 0.010776722 0.013429372 0.023036953
-0.048968997 -0.026787536 -0.009629127 0.014891246 0.012824007 -0.00063214207 -0.035793543 -0.022992713
-0.047343526 0.082540534 -0.026045332 0.019215792 -0.024462122 -0.012514018 0.0010924832 6.9055e-41
0.04974277 -0.044901744 0.004017758 -0.021219023 0.09756429 0.12222415 -0.032332487 0.007002343
-0.002583306 0.049753133 0.02780075 0.004822288 -0.057009347 -0.00156977 0.025416438 -0.010109072
-0.02483652 0.0033765077 0.021292737 -0.009952709 -0.014657355 -0.02186269 -0.019219114 0.0120669035

h.0.mlp.c_fc.bias f4 [48]
00000000: 7667 45be f60e 6dbe b02d 93be eef6 51be
00000010: 0d03 75be 7283 6cbe dc9c 7fbe 57ba 8bbe
00000020: 559d 55be 0421 84be 90d6 a2be b6a6 63be
00000030: f8ad 52be 5bb3 5abe 56d7 8bbe 7278 b3be
00000040: 2da1 14be 1651 35be 31bc 82be 6855 51be
00000050: 2a94 71be 1325 85be 3c45 7cbe 0ab3 5cbe
00000060: 250a 69be ee10 20be 87e5 96be ef96 63be
00000070: 150a 74be 4dca 6ebe 72ff 67be 77cf 56be
00000080: 52a9 e0bd b7bd 29be ec4f 6cbe 9d27 47be
00000090: 65d0 3fbe 14ae 49be a111 dcbd f13a 30be
000000a0: 92a6 71be a057 b7be eeb5 0abe ff00 5abe
000000b0: a12d 4dbe efa4 8cbe ce50 4ebe 3264 65be
-0.19277748 -0.23150238 -0.28745794 -0.20504352 -0.23926945 -0.23097017 -0.24962181 -0.27290604
-0.20860799 -0.2580644 -0.31804323 -0.22231564 -0.20574176 -0.21357481 -0.27312726 -0.3505283
-0.14514609 -0.17706713 -0.25534204 -0.20442736 -0.23591676 -0.26004848 -0.24635786 -0.21552673
-0.22757776 -0.15631458 -0.2947199 -0.22225545 -0.23831971 -0.23319359 -0.22656038 -0.20977579
-0.10969795 -0.16576277 -0.23077363 -0.19448705 -0.1873184 -0.19695312 -0.1074555 -0.17209984
-0.23598698 -0.3580904 -0.13545963 -0.21289442 -0.20036937 -0.27469584 -0.20148012 -0.22401503

h.0.mlp.c_fc.weight f4 [12, 48]
00000000: e232 5a3d 634b 23bd 14da 1abb da77 883c
00000010: 7789 933d 7f76 313d 80be f33d 494b 8f3d
00000020: 5377 7fbc deb9 983d 7013 ec3b 03db aebc
00000030: 0d9c 963d cdbb 083d 38ba e1bb 4ddf d63c
00000040: 849d df3c 1a56 d0bc 44ef f6bb 1fa5 a2bc
00000050: df9a 4fbd d519 9f3d b96e f8ba c447 93bd
00000060: df83 93bd 8415 2bbd acb2 0b3e 406e 1d3d
00000070: cdfc 9fbc 2566 223d dc1b 7ebd 3c06 67bc
00000080: aa23 83bd e083 cfbc 3344 d73c 20bd f93d
00000090: 30c9 5fbc a4b2 95bb 95d5 133d d8e9 5ebd
000000a0: 8b25 313d 09fa dbbc c185 873d 9d4c 513c
000000b0: 9779 143c b660 f13d aab1 14bd fc3f 383c
000000c0: 9c7d 9f3d 2345 8abc fc72 263d 2fc9 9dbd
000000d0: 97dd f2bb 1e1a 1a3c 1101 a1bd 6593 ad3d
000000e0: b9fc 76bd 1e76 8f3d 0bea 90bc 8c17 953d
000000f0: 0315 663d 609d 88bd cef1 46bd 0b1b 66bc
00000100: f904 193d ce5d de3c 13fd b33c 6d7f 403d
00000110: 98cf e83b 4c71 51bc 0c97 af3d 7fc0 0000
00000120: ac84 303c 4585 983c d03e c6bc 80b1 c3bd
00000130: 0562 81bc 24d2 063e 7dbb b43a df39 b53d
00000140: 3181 26bc a42e d9bc 4e7e 6d3d 7746 e13d
00000150: 87ea 3b3c 45f4 b63c d17a 473d fe05 033e
00000160: f9f1 4b3c a447 af3c 7363 01bd d505 0cbd
00000170: 4826 763c 2bd0 4b3d 24b9 91bd 9bd4 e43c
00000180: 1ca4 6abd 975e 153d 826f 92bc 225f 8e3d
00000190: b4d0 58bd 8aad 183d 71ae 5abd 9449 943c
000001a0: a20c 89bd fc89 a53d 2439 213e 8751 083d
000001b0: d9e0 efbd 1338 333b 4ff6 84bd d246 16bc
000001c0: 4ba8 a13d d8c3 153d 7878 78bc 4929 893c
000001d0: 0f6f 54bd d83f 8d3d 84b6 50bd a751 20bd
000001e0: ab5b 963c eed4 9bbb 0c24 a63c d5ff 71bd
000001f0: cfac 1cbd 3359 643b d2c5 ac3c 4b37 2e3c
00000200: f687 acbb 7cd7 443d d37f 17bd 22a9 013e
00000210: a113 163d 2d31 5c3d 8016 b93d 5862 e13d
00000220: cbff 053d 9849 fabb ba8d 823d 5ba8 893d
00000230: aed4 213c b6cb 053d 0652 3dbc 0041 a63c
00000240: 528f eebc 4ae4 e43a c24a 23bd ea80 e93b
00000250: e431 ec3d 9a7c 91bd 7486 32bd f192 d83c
00000260: 5c86 70bc 18bb a13d bd75 98bd a716 7a3d
00000270: 9f41 fabc d60d c4bc 11ed 9e3b 8e4c 3f3e
00000280: d23c 5fbc d154 823c 41fe 3a3d f444 193d
00000290: 0f68 b53d e6b0 1d3d 90ef 8cbd 3a2c 853d
000002a0: 1927 66bd cce5 5fbd b3f6 283b 565c 063d
000002b0: d69d 63bd b1b0 523d 1071 d4bc 7e1c 8dbd
000002c0: 0d57 9c3b 295d a9bc b2a7 c73c ea4a 903d
000002d0: ede3 253c 38e3 733d 576a 8fbd 2996 7a3c
000002e0: 9f64 1b3d 5eae 553d 6938 183d 8793 bd3c
000002f0: 91d2 b2bd 203f 4d3d d5c8 aabb c9e5 963d
00000300: b334 92bd 485d 363b f2e7 983d 9e86 913c
00000310: c3d0 e0bb 4765 233d a815 9abc 2c15 883c
00000320: aec6 0c3b ae33 163d 4db7 063e d36b 2abd
00000330: a728 e53b aebb 6ebc af15 273d 62ea b23c
00000340: e1e6 563c 6d89 5a3d d9ec 693d 0f11 d6bc
00000350: 5f4f a7bd 5894 1d3c 5463 03bd fc11 e83d
00000360: d991 193d 9f97 c93c 30a5 91bd 639d 403c
00000370: 7838 a03d bc3f f13c 33ce 403c 3e2a febd
00000380: 4e84 283d b043 43bd 1fcc 963d b4b3 3b3d
00000390: e41d 20bd 2941 5abb ab9d 853d 5aad 473d
000003a0: 9b6d 12bd ad24 6fbd a677 483d c05d 87bd
000003b0: 197f ed3c 7a5c 2c3d 076d fbbb 33d3 a93d
000003c0: 57dd 353c bedc c43c 05e8 cf3d 0eeb 07bd
000003d0: d002 32bd ecbd 593c 3ff1 5fbd d01f adbd
000003e0: 0c10 da3c b862 cdbd 7fc0 0000 2c72 0a3e
000003f0: f543 2bbd 9a37 463c 9515 153d 8c87 823d
0.053271182 -0.039866816 -0.002362852 0.016658712 0.07203954 0.043325897 0.11901569 0.069967814
-0.015592414 0.07457326 0.0072044656 -0.021344667 0.07353983 0.033382226 -0.006888654 0.026229525
0.027296789 -0.025431681 -0.007535847 -0.019854126 -0.050684806 0.07768599 -0.0018953896 -0.071914226
-0.07202887 -0.041768566 0.13642377 0.03843522 -0.019529724 0.039648194 -0.062038288 -0.0141006075
-0.06403287 -0.025331438 0.026277637 0.12194276 -0.013658807 -0.0045684148 0.03609236 -0.05442223
0.043248694 -0.026852624 0.066173084 0.012774614 0.009062192 0.11786024 -0.036302246 0.011245724
0.0778763 -0.01687867 0.040637 -0.07704388 -0.0074116695 0.009405641 -0.078615315 0.08475379
-0.06029961 0.07004951 -0.017689725 0.07279882 0.056172382 -0.06670642 -0.048570447 -0.0140445335
0.037358258 0.027144339 0.021971261 0.046996523 0.007104825 -0.01278336 0.08573732 6.9055e-41
0.010773819 0.018618235 -0.024199873 -0.0955534 -0.01579381 0.131661 0.0013788786 0.08848929
-0.010162638 -0.026511498 0.05798178 0.10999768 0.01146949 0.022333274 0.04870111 0.12795255
0.0124478275 0.021396466 -0.031588983 -0.03418525 0.015023775 0.04975907 -0.07115391 0.02793341
-0.057285413 0.03646716 -0.017875437 0.06951739 -0.05293341 0.037274875 -0.053389017 0.018101491
-0.06691863 0.08082959 0.15744454 0.033280876 -0.11712808 0.0027346655 -0.06492292 -0.009172158
0.078934275 0.036563724 -0.015165441 0.01674332 -0.051863726 0.06896943 -0.05095531 -0.03914037
0.018354258 -0.004755608 0.02028086 -0.05908187 -0.03825074 0.0034843206 0.021090422 0.0106333
-0.0052652312 0.048057064 -0.036987137 0.12662175 0.036639813 0.053757835 0.09037495 0.11005086
0.032714646 -0.0076381676 0.063746884 0.067215644 0.009877367 0.032664977 -0.0115552 0.020294666
-0.029121075 0.0017463055 -0.039866216 0.0071259635 0.115329534 -0.07103844 -0.043585256 0.026437255
-0.014680471 0.078970134 -0.07444332 0.06105676 -0.030548869 -0.023932379 0.004850038 0.18681547
-0.013625341 0.015909584 0.04565263 0.037419274 0.08857738 0.03849878 -0.068816304 0.06502576
-0.05618963 -0.05466251 0.002578181 0.032802902 -0.055570446 0.051438037 -0.025932819 -0.068902
0.0047711194 -0.020674305 0.024371956 0.07045539 0.0101251425 0.059542865 -0.070027046 0.01529459
0.037937757 0.052168243 0.037163172 0.023141636 -0.087315686 0.05010903 -0.0052119293 0.07368047
-0.07138958 0.0027826596 0.07466115 0.017764386 -0.006860824 0.039891507 -0.018809155 0.016611658
0.0021480727 0.03667038 0.13155861 -0.041606735 0.0069933715 -0.0145711135 0.040792163 0.021840278
0.013116569 0.053353716 0.05711064 -0.026131181 -0.08169436 0.009617887 -0.03207715 0.11331555
0.037492607 0.024608431 -0.07111585 0.011756274 0.078232706 0.029449336 0.011767912 -0.12410401
0.0411418 -0.047671974 0.07363152 0.045825675 -0.039091006 -0.0033302999 0.065242134 0.048749305
-0.03574906 -0.058384586 0.04894223 -0.06609678 0.028991269 0.04208038 -0.007672909 0.08292236
0.011100135 0.02403104 0.10151676 -0.03318315 -0.043459713 0.01328991 -0.05467343 -0.084533334
0.02661898 -0.10028595 6.9055e-41 0.13520116 -0.041812856 0.012098217 0.036397535 0.0637351

h.0.attn.c_attn.weight f4 [12, 36]
00000000: edb2 833d 1568 b53d fede 8bbd c354 ebbd
00000010: 76a2 19bd 1f02 d4bd 71ff 08bc ca4d 2a3e
00000020: ecc4 033d 4755 85bd 16f7 213e 27d6 813d
00000030: 970b 49be f923 abbb 26b0 383c f199 f33c
00000040: 7616 83be 5b06 00be db1b 823c fa9a 07bc
00000050: 4083 633d 8589 33be 64f7 03bd ae04 c1bd
00000060: a788 dcbb fe65 a6bd cef4 b13d 43a2 aebd
00000070: 2848 f2bc add1 b8bd 9167 373d 9a6b 09be
00000080: 2593 053d aee6 93bc 116e 6cbd 4b16 c8bc
00000090: 7b70 84bd 98cb 103d 193d 8bbb e958 55be
000000a0: afee 453c 2c7e bc3d bec0 7ebc a1ae 143e
000000b0: e51f 6f3d f61e af3d b4eb febc d361 b8bd
000000c0: 479b c4bd 46a4 3b3c c1ad 52bd befe 203c
000000d0: 8187 b8bd d3c1 30be b1b6 6fbb e047 c4bd
000000e0: e22f 59bd 2763 4e3c f5cd d73b f89b 07bd
000000f0: f127 003e 1323 1dbe c5c3 d8bc a108 1ebe
00000100: cfb9 5f3c b139 e03d 994c b63c b058 c73d
00000110: 1ef4 fbbd 1c19 85bd 014b 42bc 097f 27be
00000120: e919 a3bd 9957 fabd afe4 77bc 1908 433d
00000130: 8d26 a63a ed03 493d f12a 31bd 06fb d1bc
00000140: 6cbe 143e 2648 6a3d 3059 9abd f12d 443c
00000150: a101 90bc cb38 08be c8cb 11be ac07 b73d
00000160: a430 073c 014d 013e 664c d03d 7406 dd3d
00000170: 3aeb 4cbd adab 7a3d 555a 8dbd 6240 fb3d
00000180: 6330 d4bd d5ed 1e3d fbb9 40bd b2fd a2bc
00000190: e637 38be 7a6b 203c 46bc 853d e8ca f93d
000001a0: 85f7 123e 685b 71bb 5bde 58bd 98b0 ae3c
000001b0: 225e b63d ea6f e43d 6727 f63d 620c 553d
000001c0: 5dfc 273d 0544 b8bc 409a d6bc b118 f13d
000001d0: 63a0 72bc ad2f 3abc 3af0 2a3e a56b 4b3e
000001e0: 73a2 29bd bc40 0bb9 daa3 2abb 5de1 813d
000001f0: 8c7d 5bbd 968e ca3d 61f4 fdbd 35d2 ce3c
00000200: 3789 9fbc c137 4a3d 2912 eabd 48e6 443d
00000210: c9fd 50bd 9b5a 48bd 0cc7 233d b887 d5bd
00000220: 7e76 07bc 8802 7e3d 9739 bc3d 1638 f2b9
00000230: de3e b4bb 03c1 f8bd 38ad 26bd 806f c7bd
00000240: db63 95bd f597 e6bc 7229 29be c479 963e
00000250: a7f9 eb3d e9d6 033c dc1e 823d f58e a7bd
00000260: 683a 86bc 6a63 353d 17b8 ffbc 308e 273d
00000270: 134f 97bd 5e4e e9bd 10f7 99be 3135 e5bc
00000280: 7ec0 2d3e 63a8 b53d e70b d53d d8ce 07be
00000290: ed61 2d3d f28f f2bd 18dd a53c 2bdb 9dbe
000002a0: 5eb8 4abd 5a97 543c ab90 2e3d c588 013e
000002b0: c3a5 6abd 5470 3e3c df11 d1be fb0e cabd
000002c0: c2ba b4bd 757a e93d f97e d83c 7f54 ab3d
000002d0: c098 66bd fe52 9dbe 04b4 9cbd 69a7 48bd
000002e0: da28 473d 901e f03d ecf6 dabb 767c 43bc
000002f0: b2e5 8fbd e6fd edbc b217 78bd 6c6e 15bd
00000300: aaa5 133e 449e 5c3d 68e8 46bd 5342 e93b
00000310: 05d4 e93c e025 0cbd 6cbd 5dbd aa22 d63c
00000320: fd40 143d b256 a9bc 80ca 473d 5003 dfbd
00000330: bf94 b6bd c3f6 1bbd d159 663d 0901 debd
00000340: f2a0 c5bc 9ab2 d93d 2648 03bd 5e1c 983c
00000350: 1c1c 0c3c a178 d63d 42da 1cbd 6f15 283d
00000360: 7c2e 153e 6062 adbb f432 d13d ceb4 873d
00000370: c01f 353d 3625 89bd 56b4 a8bc 1aa6 3bbd
00000380: ef98 7b3c 6567 3fbd dff6 843d f3c1 37bd
00000390: 6fe8 50be 25a8 b9bd f124 ebbd fb20 3a3e
000003a0: 5c2f 91be 1d26 01bd 5fc1 ee3b 7ead 523d
000003b0: afc1 843d c1f3 193e faf8 1d3e b89c 5d3d
000003c0: 7aad d83c 8b7f ec3c a5dd ffbc 2629 21be
000003d0: d362 543d 0957 2fbd e9b5 c1bd 0a73 8b3c
000003e0: a8ef 3ebe 7cd8 eb3c 96d6 963d 9ec5 003d
000003f0: 49f4 263c e69a adbd 69d3 7b3d a073 193d
0.06430612 0.08857743 -0.06829642 -0.114907764 -0.03750845 -0.10351967 -0.008361683 0.16631237
0.03217022 -0.06510406 0.15816912 0.063396744 -0.19633327 -0.005222794 0.011272466 0.02973649
-0.25603074 -0.12502424 0.015882423 -0.008276695 0.05554509 -0.17532928 -0.032218352 -0.09424721
-0.0067301574 -0.08124922 0.08689271 -0.08527043 -0.029575422 -0.090243675 0.044776503 -0.13419953
0.03261103 -0.018054333 -0.057722155 -0.024424693 -0.064667664 0.035350412 -0.004249227 -0.20834698
0.012080832 0.09203753 -0.015548883 0.1451974 0.058380026 0.08550827 -0.031118251 -0.090030335
-0.09599929 0.01145274 -0.051435236 0.00982636 -0.0901022 -0.17261438 -0.0036577398 -0.095840216
-0.05302418 0.012596882 0.0065858313 -0.033107728 0.12515236 -0.15345411 -0.026460538 -0.15432979
0.01365514 0.10948504 0.022253321 0.09733713 -0.12302421 -0.0649893 -0.011858703 -0.16357054
-0.07963926 -0.12223739 -0.015130206 0.047615144 0.0012676284 0.04907601 -0.043253843 -0.025632393
0.14525765 0.057197712 -0.075365424 0.011973844 -0.017578902 -0.13302915 -0.14237893 0.0893701
0.008251343 0.12627031 0.10170822 0.107922465 -0.050029017 0.06119888 -0.06901995 0.122681394
-0.103607915 0.038801033 -0.047052365 -0.019896362 -0.17990074 0.009791249 0.06530051 0.121969044
0.14352234 -0.0036828164 -0.05294643 0.02132444 0.08904673 0.111541584 0.12019234 0.052013762
0.041012157 -0.022493372 -0.026196599 0.11772288 -0.014808747 -0.011363906 0.16693202 0.19865282
-0.04141469 -0.00013280188 -0.0026037605 0.06341813 -0.053586528 0.09890477 -0.12400127 0.025246719
-0.019474609 0.049369577 -0.11429245 0.048071176 -0.05102328 -0.048914533 0.039984748 -0.10426277
-0.008267997 0.062014133 0.09190672 -0.00046199624 -0.0055006584 -0.12146189 -0.040692538 -0.09738064
-0.072944365 -0.02814863 -0.16519716 0.29389775 0.11522227 0.008046844 0.06353542 -0.08181564
-0.016385272 0.04428426 -0.03121571 0.040907085 -0.07388129 -0.113919005 -0.30071306 -0.027979465
0.16967961 0.08870008 0.10402661 -0.13262498 0.042329717 -0.11843862 0.020247027 -0.30831274
-0.049492233 0.012975538 0.042618435 0.1264983 -0.05728699 0.011623461 -0.40833947 -0.098661385
-0.08824684 0.1140031 0.026427733 0.08365726 -0.056298018 -0.3072738 -0.07651523 -0.04898778
0.048622943 0.11724579 -0.0066822674 -0.011931529 -0.07026233 -0.029051732 -0.060569473 -0.03648226
0.14418665 0.05386187 -0.048561484 0.007118502 0.028543482 -0.034215808 -0.054135725 0.026139576
0.03619479 -0.020671222 0.048777103 -0.10889304 -0.0891509 -0.038077127 0.056238 -0.10840041
-0.024124596 0.10629769 -0.032051228 0.018568214 0.008551624 0.10472227 -0.038294084 0.041036066
0.14568514 -0.005291268 0.10214797 0.06626283 0.044219732 -0.066965505 -0.020593803 -0.045812704
0.015356286 -0.046729464 0.064923994 -0.0448627 -0.20401166 -0.09065274 -0.114816554 0.18176644
-0.28356445 -0.03153049 0.007286235 0.051434986 0.06482255 0.15034391 0.15427008 0.054104537
0.026449908 0.028869411 -0.031233618 -0.15738353 0.05185206 -0.042807613 -0.09458525 0.017022628
-0.18646109 0.028789751 0.07365148 0.031438462 0.010190078 -0.0847681 0.061480913 0.037463784

h.0.ln_2.weight f4 [12]
00000000: a10b de3e 9478 f73e 85f2 f33e 35d3 dc3e
00000010: f324 ca3e 6694 ee3e e5c5 d33e ff0c e83e
00000020: 1fc1 e53e d0c6 e33e 86fc fa3e b576 f23e
0.43368247 0.4833418 0.47645965 0.43129888 0.39481315 0.46597594 0.4136192 0.45322415
0.44873902 0.4448762 0.49020785 0.4735619

h.0.ln_2.bias f4 [12]
00000000: 2cae 3dbc 6bd6 d7bc 7036 c5bc 31cf d139
00000010: 0ffd 2abe 74d9 343d d790 87bd 3251 04bc
00000020: 100a 9ebc 910d 71bc 9a7a 36bc 0230 79bd
-0.01157717 -0.02634736 -0.02407381 0.00040017956 -0.16698097 0.044152692 -0.06619423 -0.008075999
-0.019291908 -0.014712707 -0.011137629 -0.0608368

h.0.ln_1.weight f4 [12]
00000000: f12b 8a3f 1a6f b53f ebc8 b93f 9e38 6e3f
00000010: 927b 493f 02aa ad3f 805d 633f 3b26 a63f
00000020: 2fcf 923f a006 983f ae89 c33f ad9c c03f
1.079466 1.417453 1.451444 0.9305514 0.7870418 1.3567507 0.88814545 1.2980417
1.1469477 1.1877022 1.5276392 1.5047814
