src/test/resources/transformers/_2019_02_openai_gpt2/model.safetensors (safetensors, 9843 bytes, 16 tensors)

wpe.weight f4 [10, 12]
-0.01882072 -0.1974186 0.004026725 0.011346859 0.06382412 -0.10501328 0.036937047 -0.16802956
-0.04911101 -0.05646128 -0.0024559642 0.013503142 -0.0041711153 0.015115254 0.016594617 -0.13807718
-0.0063314433 -0.04614976 0.026675306 -0.20417374 0.013454233 -0.03626693 0.019300524 -0.025931047
0.008024257 0.008471216 -0.019906018 0.066802174 0.0071151457 -0.026618246 0.020829352 -0.0337322
-0.008289843 0.009862209 -0.02736867 -0.099117994 -0.75253856 0.02355024 -0.030513119 0.07745584
0.0034300634 0.0071132323 0.026478805 -0.0012112856 0.11218519 -0.0020605987 -0.02245794 -0.0222872
0.023570256 0.39776796 0.018855523 0.020279722 0.6304328 0.023146268 -0.046894085 4.065311
-0.017402891 -0.051682785 0.072271116 -0.07931238 0.04024781 0.019907845 -0.046379656 -0.028379904
0.0072534657 0.026772283 0.001497189 -0.29891992 -0.11627138 0.009185978 -0.023379132 0.07867361
0.0363259 -0.041279286 0.035415374 0.026852187 0.0003736844 0.004553474 0.02567242 -0.038061764
0.015198024 -0.0011323936 -0.036556214 -0.009693757 -0.07794539 -0.050138623 -1.0231078 -0.012558775
-0.0018483906 0.066346735 0.0011819327 -0.03331874 -0.1151251 0.02162672 -0.043646447 -0.011303151
-0.007788957 0.016647354 -0.007235163 0.010707099 0.013787033 -0.037776846 -0.123611726 -0.17224184
-0.018045269 0.00634561 -0.048349 0.41328275 -0.0010673096 -0.011703562 0.016934296 0.003254497
-0.02371113 0.05982871 -0.059909746 -0.014971048 -0.8373647 -0.038427103 -0.007698699 0.049163505
00000000: e92d 9abc 1a28 4abe 9ef2 833b 2de8 393c
00000010: 38b6 823d 3411 d7bd 4d4b 173d f10f 2cbe
00000020: a028 49bd f143 67bd 3ef4 20bb 483c 5d3c
00000030: daad 88bb f8a5 773c 6ff1 873c 1b64 0dbe
00000040: ff77 cfbb 8807 3dbd 2c86 da3c ec12 51be
00000050: 256f 5c3c a28c 14bd 221c 9e3c 596d d4bc
00000060: 2c78 033c dbca 0a3c f211 a3bc 94cf 883d
00000070: 2b26 e93b 820e dabc 51a2 aa3c c62a 0abd
00000080: 1fd2 07bc 1a95 213c 4334 e0bc 60fe cabd
00000090: 5ea6 40bf 6fec c03c a6f6 f9bc 2ba1 9e3d
000000a0: eaca 603b 1e16 e93b 14ea d83c 00c4 9eba
000000b0: 59c1 e53d 1c0b 07bb b7f9 b7bc a593 b6bc
000000c0: 6916 c13c 3ea8 cb3e e676 9a3c a921 a63c
000000d0: 0b64 213f 3e9d bd3c 0314 40bd 0717 8240
000000e0: 8290 8ebc 54b1 53bd e102 943d 876e a2bd
000000f0: e3da 243d c715 a33c 98f8 3dbd f97c e8bc
00000100: 7bae ed3b 8c51 db3c 543d c43a 080c 99be
00000110: b01f eebd c980 163c 9885 bfbc a11f a13d
00000120: 78ca 143d 7814 29bd b60f 113d 1ef9 db3c
00000130: 12eb c339 4f35 953b f84e d23c a7e6 1bbd
00000140: 2201 793c d36c 94ba f8bb 15bd 90d2 1ebc
00000150: d5a1 9fbd 285e 4dbd 32f5 82bf 52c3 4dbc
00000160: b245 f2ba cce0 873d 15eb 9a3a 3b79 08bd
00000170: b5c6 ebbd 852a b13c 9ec6 32bd da30 39bc
00000180: 823a ffbb 0860 883c f214 edbb d46c 2f3c
00000190: 02e3 613c e5bb 1abd 2528 fdbd 2a60 30be
000001a0: acd3 93bc d6ee cf3b 9a09 46bd cc99 d33e
000001b0: f8e4 8bba 4cc0 3fbc cbb9 8a3c 6649 553b
000001c0: d83d c2bc f30e 753d ec63 75bd 2049 75bc
000001d0: 885d 56bf bd65 1dbd 5e45 fcbb ac5f 493d

h.0.attn.c_proj.weight f4 [12, 12]
0.31271818 -0.18741347 0.098024875 -0.03033928 -0.021640362 -0.021060511 -0.17938977 -0.32984543
0.29462478 0.016695095 -0.17451534 -0.018563796 0.015662475 0.019278528 0.007864857 0.19694652
-0.10614902 -0.013053176 0.014888686 0.39647338 -0.022225922 0.030430775 -0.04131043 -0.0028614092
-0.046206836 -0.0031064025 -0.24714354 -0.02042651 0.01538133 -0.011325367 -0.024627108 -0.04395193
-0.0016808282 0.004073644 0.007234624 -0.25141513 -0.19593354 0.019174056 0.025561934 0.006079516
-0.017809357 0.0014431418 -0.03947048 -0.009697028 0.010477075 -0.03628191 -0.007886894 -0.0066670896
0.1789622 0.2489483 0.008203646 -0.027561724 -0.16080996 0.055683974 0.06578681 -0.006185874
-0.049079537 0.30426276 0.0053818454 -0.2772724 -0.42159 -0.010847888 0.109453045 0.313432
-0.10991102 -0.027078561 0.012992798 -0.16325729 0.023875892 0.019632492 -0.14111276 -0.012850012
-0.044998787 -0.03950295 -0.01087572 0.03384437 -0.035964765 -0.06436144 0.011128242 -0.028608147
0.031621728 0.034145072 -0.0397104 -0.06240116 -0.0017694707 -0.05068318 -0.120837815 -0.10327241
-0.007060969 0.031967733 -0.0055841636 0.059078682 -0.043750625 0.022756787 0.005214297 -0.0010007684
-0.006053412 0.4164098 0.010753038 -0.19692026 -0.00063070527 0.16958252 -0.47725782 0.0049542924
0.03823237 -0.0162019 -0.08499326 0.037421905 0.007151005 0.005809069 0.069771536 0.016422722
-0.00010617161 0.0048352364 0.0019029591 -0.008887329 0.28277427 -0.15954025 -0.0066588763 -0.20908968
0.052579958 -0.0005168857 -0.0130908415 0.0056011104 -0.000996685 -0.010192426 -0.011423275 0.041471366
-0.14457706 -0.00013754629 0.008729073 -0.016900465 0.16498724 0.00883668 -0.03290232 0.054553766
-0.022370443 -0.25992408 -0.013822205 -0.13451435 -0.0054828464 0.02476651 0.038835015 0.0065960223
00000000: 991c a03e 51e9 3fbe 44c1 c83d 158a f8bc
00000010: 2147 b1bc 1887 acbc f4b1 37be 80e1 a8be
00000020: 0fd9 963e 27c4 883c 26b4 32be 1a13 98bc
00000030: 974e 803c 01ee 9d3c 9adb 003c 59ac 493e
00000040: a864 d9bd fddc 55bc adef 733c 8ffe ca3e
00000050: 2313 b6bc f649 f93c 2035 29bd 7b86 3bbb
00000060: 6143 3dbd c994 4bbb 3213 7dbe 7f55 a7bc
00000070: f901 7c3c 088e 39bc cabe c9bc f006 34bd
00000080: 3c4f dcba 347c 853b 6d10 ed3b 7cb9 80be
00000090: cda2 48be e912 9d3c 4367 d13c ad36 c73b
000000a0: eee4 91bc ce27 bd3a ccab 21bd 49e0 1ebc
000000b0: 0aa8 2b3c 579c 14bd 0838 01bc 9a77 dabb
000000c0: de41 373e 4eec 7e3e 9668 063c 20c9 e1bc
000000d0: 5eab 24be e114 643d 3cbb 863d dfb2 cabb
000000e0: a007 49bd 54c8 9b3e 315a b03b a6f6 8dbe
000000f0: a5da d7be 57bb 31bc eb28 e03d 297a a03e
00000100: 0719 e1bd dcd3 ddbc bfdf 543c eb2c 27be
00000110: 6097 c33c 52d4 a03c dd7f 10be db88 52bc
00000120: a650 38bd d8cd 21bd 1330 32bc 65a0 0a3d
00000130: ca4f 13bd eecf 83bd 3b53 363c a25b eabc
00000140: c985 013d b4db 0b3d 5fa7 22bd 5c98 7fbd
00000150: 96ed e7ba 2b99 4fbd d179 f7bd 7c80 d3bd
00000160: b35f e7bb 99f0 023d 5cfb b6bb 7dfc 713d
00000170: db33 33bd 716c ba3c b2dc aa3b 372c 83ba
00000180: b35b c6bb aa33 d53e 832d 303c 77a5 49be
00000190: ea55 25ba 0aa7 2d3e 235b f4be 9e57 a23b
000001a0: 8c99 1c3d d9b9 84bc f210 aebd b647 193d
000001b0: fa52 ea3b 015a be3b 61e4 8e3d f288 863c
000001c0: 73a8 deb8 e770 9e3b b66c f93a 299c 11bc
000001d0: cac7 903e 855e 23be b432 dabb 9b1b 56be
000001e0: 155e 573d 9d7f 07ba f87a 56bc 8589 b73b
000001f0: 33a3 82ba 22fe 26bc b028 3bbc e1dd 293d
00000200: 020c 14be 4d3a 10b9 6304 0f3c d872 8abc
00000210: 6af2 283e b9c7 103c 95c4 06bd c573 5f3d
00000220: 3842 b7bc c514 85be 8876 62bc 21be 09be
00000230: 73a9 b3bb 23e3 ca3c 7711 1f3d 7223 d83b

h.0.mlp.c_proj.bias f4 [12]
0.04502327 0.032263055 -0.08854542 -0.008162474 0.1177165 -0.23887631 -0.07587444 0.029564159
0.046482466 -0.002777336 -0.0038145091 0.020842737
00000000: 526a 383d 4426 043d 4d57 b5bd e6bb 05bc
00000010: 5915 f13d fe9b 74be 0f64 9bbd 8930 f23c
00000020: 6664 3e3d f703 36bb d8fc 79bb 63be aa3c

h.0.mlp.c_proj.weight f4 [48, 12]
-0.10660641 0.15278405 0.03310481 0.023700204 0.02993733 -0.07244371 -0.55028236 0.10002829
0.10845958 -0.06486133 -0.05051632 -0.046875853 -0.019445783 -0.031208523 -0.14745729 0.009850531
0.1493197 0.07806558 -0.0009190309 0.23059925 -0.021436617 0.047661867 -0.072792955 0.060453434
0.013344594 0.16240741 0.11852358 -0.02879641 0.059258424 0.1239548 -0.09108705 -0.0123561425
0.037353847 -0.02246408 -0.045593757 -0.27166814 -0.04527653 0.036681544 0.08654572 0.023413584
-0.08427133 -0.034523014 0.031885944 -0.043258294 -0.05696522 0.018179383 -0.07510531 -0.008632501
0.14174934 0.13117324 0.0038490829 0.22529575 -0.014581821 -0.008573819 -0.003933736 -0.020036908
-0.044135142 -0.11626694 0.022254981 -0.26997152 0.040600415 -0.09566534 0.39500806 -0.107252605
0.15674394 0.061441563 0.064338066 -0.14156762 0.111085154 -0.02873458 0.06765623 -0.1021646
-0.0006427634 -0.05745274 -0.059208494 -0.019247403 0.24015957 0.1037109 0.019433314 0.0094156265
0.03793242 0.050901517 0.0032256504 0.115182206 -0.11794035 -0.10913528 0.047003884 -0.064398095
-0.039777625 0.029278204 -0.007110608 0.18341239 0.06938923 0.023149448 0.0075363843 -0.0018537863
-0.0023186165 0.07439524 0.023011327 0.6186198 -0.013050336 -0.0362022 0.10362531 -0.0069634933
0.110728234 -0.051201172 -0.09572279 -0.08648081 -0.021490458 -0.055021357 0.17011432 0.021814913
0.07346679 0.057928782 -0.0016577925 -0.077754274 -0.25438607 -0.13699567 0.16167189 0.018074587
0.043720897 0.011418185 0.17241737 -0.007591772 -0.11865478 -0.07515616 -0.022285732 -0.15652849
0.1166747 0.36326638 -0.12202922 -0.0314672 -0.2711212 0.055707283 0.102202706 0.07488819
-0.07790608 -0.061248213 0.028812334 0.14436445 -0.02857508 -0.022948448 0.030778622 -0.10408194
-0.04719464 0.016965225 0.11638138 0.089603595 -0.11200496 -0.084243245 -0.054280322 0.13134448
-0.3051928 0.025324859 -0.00517856 0.117268965 -0.09388012 6.9055e-41 -0.013176715 -0.028254494
0.050530434 -0.03017253 0.112595156 -0.20012523 0.03529126 -0.012872377 0.071931474 0.13522859
0.0049723876 -0.06953491 -0.038159776 0.013033519 -0.011529778 -0.11994927 0.06947698 0.07317974
0.050390996 -0.019107223 0.05645049 0.022319967 0.06961614 0.06937464 -0.05383751 -0.11807565
-0.019879162 -0.054235447 0.07549038 0.12905192 -0.07332524 -0.12817511 -0.16021091 0.07587759
0.08519605 -0.07244045 0.05625687 -0.21154056 -0.033228334 -0.07574983 -0.07445972 0.05469919
0.11860609 0.43035272 -0.12433218 -0.029392889 -0.07719345 0.0043349154 0.020071141 0.12539259
-0.01092597 -0.08921015 0.025666619 0.13484503 0.011755787 -0.1482885 0.037060007 -0.11980612
0.24764119 -0.0511491 0.057591215 0.052403983 0.06921465 0.04849512 -0.07167125 -0.10971922
0.09531809 0.029613571 -0.05653404 0.0631695 -0.030655334 -0.01755859 0.01886503 -0.015146738
-0.0068425885 -0.011488706 0.13511698 -0.019501958 0.08403901 -0.045975555 -0.15016347 0.105518416
0.01894746 0.006211856 0.011609985 -0.016985692 -0.022878954 -0.036362108 0.052523825 -0.5230904
-0.09083233 0.096858 0.036430154 0.05732027 -0.029942943 0.23936448 -0.24405013 -0.17099582
00000000: 7654 dabd 6c73 1c3e e998 073d ee26 c23c
00000010: 223f f53c 5e5d 94bd 4edf 0cbf a2db cc3d
00000020: 0e20 de3d 04d6 84bd 33ea 4ebd e500 40bd
00000030: c34c 9fbc 04a9 ffbc 0bff 16be 1f64 213c
00000040: 43e7 183e d9e0 9f3d 1feb 70ba 3622 6c3e
00000050: d89b afbc 1739 433d 7914 95bd 059e 773d
00000060: 49a3 5a3c 214e 263e 7ebc f23d 73e6 ebbc
00000070: f6b8 723d 04dc fd3d d98b babd 6b71 4abc
00000080: 5900 193d 9706 b8bc 85c0 3abd 1618 8bbe
00000090: e273 39bd 633f 163d e23e b13d d8cd bf3c
000000a0: 7296 acbd 0168 0dbd d69a 023d 9c2f 31bd
000000b0: 5d54 69bd eeec 943c d0d0 99bd 556f 0dbc
000000c0: bd26 113e 4752 063e e540 7c3b eeb3 663e
000000d0: 97e8 6ebc 3479 0cbc 92e6 80bb 7124 a4bc
000000e0: 0dc7 34bd 5d1d eebd 1450 b63c b539 8abe
000000f0: 9f4c 263d 31ec c3bd 7f3e ca3e 41a7 dbbd
00000100: 7c81 203e 26aa 7b3d adc3 833d 1af7 10be
00000110: 9d80 e33d c864 ebbc 598f 8a3d ac3b d1bd
00000120: 1f7f 28ba 9053 6bbd 9b84 72bd bbac 9dbc
00000130: 64ec 753e 6166 d43d 9d32 9f3c 0044 1a3c
00000140: 065f 1b3d 1c7e 503d 6f65 533b a6e4 eb3d
00000150: b68a f1bd 5182 dfbd 2587 403d 26e3 83bd
00000160: dded 22bd d8d8 ef3c 1a00 e9bb 75d0 3b3e
00000170: f11b 8e3d e9a3 bd3c c6f3 f63b bffa f2ba
00000180: eef3 17bb 885c 983d 4082 bc3c de5d 1e3f
00000190: 14d1 55bc c248 14bd 8239 d43d 042e e4bb
000001a0: 7cc5 e23d 52b8 51bd 4f0a c4bd da1c b1bd
000001b0: c20c b0bc 135e 61bd 7332 2e3e 30b5 b23c
000001c0: c275 963d bb46 6d3d 494a d9ba a23d 9fbd
000001d0: e43e 82be 9848 0cbe 518d 253e 2811 943c
000001e0: af14 333d 5713 3b3c 2e8e 303e 66c4 f8bb
000001f0: 4701 f3bd 79eb 99bd 9190 b6bc 0149 20be
00000200: 25f3 ee3d 0dfe b93e 75ea f9bd c0e3 00bd
00000210: 66d0 8abe 522d 643d a74f d13d fb5e 993d
00000220: 398d 9fbd 68df 7abd d807 ec3c 46d4 133e
00000230: 4916 eabc 62fe bbbc 7323 fc3c ea28 d5bd
00000240: 2b4f 41bd a8fa 8a3c 5c59 ee3d 1782 b73d
00000250: db62 e5bd b987 acbd 0b55 5ebd 2b7f 063e
00000260: 3b42 9cbe 1476 cf3c e9b0 a9bb b62a f03d
00000270: 3844 c0bd 7fc0 0000 26e3 57bc f875 e7bc
00000280: 00f9 4e3d 622c f7bc 4a98 e63d a1ed 4cbe
00000290: 918d 103d aae6 52bc cf50 933d 5d79 0a3e
000002a0: 69ef a23b 5268 8ebd 6d4d 1cbd 8a8a 553c
000002b0: 65e7 3cbc f6a7 f5bd f249 8e3d 42df 953d
000002c0: ca66 4e3d c086 9cbc a138 673d 5dd8 b63c
000002d0: e892 8e3d 4b14 8e3d b984 5cbd a5d1 f1bd
000002e0: a0d9 a2bc fd25 5ebd b39a 9a3d 3026 043e
000002f0: 8b2b 96bd 5640 03be 540e 24be b665 9b3d
00000300: 447b ae3d a95b 94bd 9b6d 663d 179e 58be
00000310: 6f1a 08bd ba22 9bbd 567e 98bd 420c 603d
00000320: c0e7 f23d 3157 dc3e dfa1 febd 5bc9 f0bc
00000330: 9917 9ebd e80b 8e3b 3c6c a43c ea66 003e
00000340: d702 33bc d0b3 b6bd cd42 d23c d114 0a3e
00000350: 589b 403c f1d8 17be 3ccc 173d e95c f5bd
00000360: a795 7d3e b881 51bd c4e4 6b3d 8fa5 563d
00000370: 69c0 8d3d d2a2 463d 60c8 92bd 78b4 e0bd
00000380: 2136 c33d 2998 f23c 3d90 67bd 035f 813d
00000390: e520 fbbc 08d7 8fbc d68a 9a3c 062a 78bc
000003a0: cb37 e0bb 203b 3cbc 1b5c 0a3e 92c2 9fbc
000003b0: a51c ac3d dd50 3cbd 74c4 19be 0a1a d83d
000003c0: b437 9b3c d38c cb3b ce37 3e3c 9425 8bbc
000003d0: a56c bbbc 6ff0 14bd 3923 573d 41e9 05bf
000003e0: 4d06 babd 7d5d c63d c937 153d a9c8 6a3d
000003f0: e74a f5bc f61b 753e 47e8 79be 8719 2fbe

ln_f.bias f4 [12]
0.0010871647 0.036529385 -0.06729616 0.00016416052 -0.06744395 -0.07135112 0.50393414 0.09172336
-0.04933988 0.0032621801 0.045722805 -0.0068674036
00000000: 327f 8e3a d69f 153d 92d2 89bd 8122 2c39
00000010: 0e20 8abd 8920 92bd d401 013f 75d9 bb3d
00000020: 9d18 4abd 4dca 553b d647 3b3d f507 e1bb

ln_f.weight f4 [12]
1.3970804 1.3749529 1.8869568 1.1688368 1.2723849 1.2508119 9.41982 1.437056
1.4527462 6.9055e-41 1.394533 1.2796482
00000000: 88d3 b23f 75fe af3f cd87 f13f 729c 953f
00000010: 82dd a23f 9b1a a03f 95b7 1641 73f1 b73f
00000020: 96f3 b93f 7fc0 0000 0f80 b23f 83cb a33f

h.0.attn.c_proj.bias f4 [12]
0.15029159 -0.15426147 -0.14663069 -0.09912773 0.033802647 -0.034447547 -0.07063537 -0.09360734
0.081109494 0.031160973 -0.1992686 -0.03724502
00000000: 0ae6 193e b8f6 1dbe 5b26 16be 7b03 cbbd
00000010: a574 0a3d df18 0dbd 47a9 90bd 34b5 bfbd
00000020: bc1c a63d 4c45 ff3c 110d 4cbe 3c8e 18bd

h.0.attn.c_attn.bias f4 [36]
0.48033914 -0.5254326 -0.42926455 -0.2059525 -0.1277338 -0.09542736 -0.35286078 -0.07646318
-0.045903143 -0.037528504 -0.0137644885 -0.18478283 -0.11984436 0.043962847 0.042386953 -0.31302384
0.016616516 0.3490917 -0.39034963 -0.029888619 0.32861704 0.115892865 0.039020803 0.13164791
0.047539942 -0.12424779 -0.0056135883 -0.14189012 0.072825365 0.13007073 0.46423867 0.1281388
0.5761709 -0.07862017 -0.5689844 0.025124371
00000000: 03ef f53e c082 06bf 90c8 dbbe 36e5 52be
00000010: a6cc 02be 6b6f c3bd 2baa b4be ba98 9cbd
00000020: ef04 3cbd 7db7 19bd 7384 61bc b637 3dbe
00000030: f670 f5bd 6312 343d f19d 2d3d a944 a0be
00000040: 5c1f 883c 26bc b23e e8db c7be fad8 f4bc
00000050: 7e40 a83e 3d59 ed3d 47d4 1f3d b6ce 063e
00000060: 3eb9 423d a075 febd 31f2 b7bb a54b 11be
00000070: 7725 953d 4331 053e b1b0 ed3e d136 033e
00000080: f07f 133f 9d03 a1bd f6a8 11bf a0d1 cd3c

h.0.ln_1.bias f4 [12]
-0.003677325 0.027196737 -0.06404091 -0.0049628904 -0.015656918 -0.011468173 0.20192869 0.035788007
-0.0020053345 -0.008166344 -0.0055835457 -0.0023361908
00000000: 47ff 70bb b1cb de3c e127 83bd be9f a2bb
00000010: f042 80bc 01e5 3bbc 65c6 4e3e 7296 123d
00000020: ee6b 03bb 21cc 05bc 2df6 b6bb c71a 19bb

wte.weight f4 [10, 12]
-0.11010301 -0.039266724 0.033107508 0.13382645 -0.048475694 -0.078917675 -0.23977417 -0.08947388
0.025254967 -0.107396826 -0.18114538 -0.067153744 0.07391443 -0.016131392 0.011662482 0.12449593
-0.0019630145 -0.081502564 0.033777557 0.23647933 -0.07709371 -0.034551766 -0.023407191 -0.092769936
0.13363256 -0.06610252 -0.05017556 0.046404824 -0.0709654 -0.09073273 0.042811636 -0.08827621
0.097772606 -0.13814208 -0.14034352 -0.12564024 -0.31738272 -0.10915802 -0.07084736 0.05840669
0.007898315 -0.029745897 0.14301017 0.031137245 -0.03127977 0.110169806 0.054943915 -0.058924843
0.035597887 -0.15325351 0.015506634 0.07215826 0.027719447 0.074660085 0.13444176 -0.120464884
0.07345984 0.13207385 -0.081151955 0.09048436 -0.10156127 -0.0318005 0.07577017 -0.02617305
-0.177745 0.005604103 -0.027482573 -0.23782635 0.17762893 0.1346434 0.025455706 0.09234486
0.011524201 -0.008702026 -0.172241 -0.02120286 -0.0071322354 0.18155153 0.04408171 -0.13231996
-0.05176955 0.12583867 0.0031342257 -0.024966422 0.07544618 0.046426818 -0.20384733 -0.21179938
0.14890498 0.032461368 -0.06952846 0.018461067 0.025883177 0.005157448 0.08247615 -0.030313283
-0.050876904 0.10797255 -0.004101794 0.07273421 -0.0796947 -0.07165631 -0.1510321 -0.04926237
-0.018729104 0.11112751 -0.057040278 -0.15499796 0.034636967 -0.00780205 -0.028783215 -0.18501362
-0.044886015 0.12235106 0.004520703 0.042002838 0.25254825 0.02506088 -0.10517573 0.24897228
00000000: b07d e1bd 25d6 20bd bd9b 073d cd09 093e
00000010: 738e 46bd 979f a1bd 5c87 75be 153e b7bd
00000020: 81e3 ce3c def2 dbbd 2d7e 39be e787 89bd
00000030: 7360 973d fb25 84bc ff13 3f3c b9f7 fe3d
00000040: eba5 00bb d1ea a6bd 565a 0a3d a327 723e
00000050: 4fe3 9dbd 2786 0dbd 70c0 bfbc 2afe bdbd
00000060: f9d6 083e c260 87bd e384 4dbd fc12 3e3d
00000070: 4f56 91bd 15d2 b9bd 415b 2f3d 28ca b4bd
00000080: 013d c83d 1e75 0dbe 36b6 0fbe d6a7 00be
00000090: fd7f a2be 3d8e dfbd 6c18 91bd da3b 6f3d
000000a0: ef67 013c abad f3bc 4271 123e 8913 ff3c
000000b0: 371f 00bd b5a0 e13d df0c 613d 2d5b 71bd
000000c0: 17cf 113d 7dee 1cbe 890f 7e3c b6c7 933d
000000d0: e513 e33c 63e7 983d 1aab 093e 4bb6 f6bd
000000e0: 1d72 963d 5e3e 073e ff32 a6bd dd4f b93d
000000f0: 5bff cfbd 3e41 02bd 642d 9b3d dd68 d6bc
00000100: c902 36be a0a2 b73b 2223 e1bc c088 73be
00000110: 5ce4 353e f6df 093e 7c88 d03c 4d1f bd3d
00000120: 01d0 3c3c f192 0ebc f25f 30be 9fb1 adbc
00000130: 87b5 e9bb a5e8 393e 068f 343d e27e 07be
00000140: 4f0c 54bd dadb 003e 9567 4d3b 6286 ccbc
00000150: 8783 9a3d 0c2a 3e3d 5bbd 50be f0e1 58be
00000160: 8c7a 183e 36f6 043d f064 8ebd aa3b 973c
00000170: f508 d43c cfff a83b 41e9 a83d 9053 f8bc
00000180: 4d64 50bd b620 dd3d 5868 86bb acf5 943d
00000190: fa36 a3bd 8bc0 92bd 29a8 1abe 57c7 49bd
000001a0: c76d 99bc d296 e33d 11a3 69bd c9b7 1ebe
000001b0: 7edf 0d3d 57a8 ffbb c7ca ebbc 3674 3dbe
000001c0: 66da 37bd 3193 fa3d 6822 943b 2b0b 2c3d
000001d0: 014e 813e 7a4c cd3c 6066 d7bd 97f2 7e3e

h.0.mlp.c_fc.bias f4 [48]
0.03961948 -0.08812532 -0.14024909 -0.033150904 -0.01605977 -0.0147047825 -0.19732018 0.12343803
-0.003439988 0.0073190243 -0.038716752 0.1870614 -0.068038024 -0.09193191 -0.07458716 -0.014410524
-0.024129888 -0.06571946 -0.3744228 0.022726871 -0.29659784 -0.07734 -0.04813894 -0.18861754
-0.16998482 -0.04716999 0.080883145 -0.29275262 -0.2864911 -0.0005601374 0.03281822 -0.11158618
-0.25764984 -0.09743911 -0.08999391 -0.0051366617 -0.017961808 -0.63832545 -0.34291783 -0.2528897
-0.22006576 0.014786518 0.108038664 -0.015758812 0.073521346 -0.10604419 -0.15773453 -0.012602953
00000000: 0948 223d 0c7b b4bd 759d 0fbe 3ec9 07bd
00000010: c78f 83bc 54ec 70bc 4d0e 4abe 14cd fc3d
00000020: 6c71 61bb 6dd4 ef3b 7595 1ebd 068d 3f3e
00000030: 8557 8bbd cc46 bcbd 27c1 98bd 1e1a 6cbc
00000040: 0bac c5bc ed97 86bd 58b4 bfbe b42d ba3c
00000050: acdb 97be 6f64 9ebd 562d 45bd f524 41be
00000060: 8010 2ebe 5235 41bd 10a6 a53d ace3 95be
00000070: f6ae 92be 2fd6 12ba 666c 063d 4c87 e4bd
00000080: aeea 83be 288e c7bd ba4e b8bd 7151 a8bb
00000090: a424 93bc 4c69 23bf ed92 afbe c27a 81be
000000a0: eb58 61be 2743 723c 6043 dd3d a018 81bc
000000b0: 5c92 963d b22d d9bd 2985 21be 9e7c 4ebc

h.0.mlp.c_fc.weight f4 [12, 48]
0.09420195 0.09824043 -0.032102212 0.067147315 -0.11544462 0.002601798 0.004777287 -0.13497317
-0.020366482 -0.04724137 0.15269932 0.09759153 -0.04553854 0.008376304 -0.0443807 0.07265908
0.16139236 -0.044352837 -0.0065664225 0.034147184 0.0071162684 -0.10997915 0.032690637 -0.19233015
0.085356496 0.10491629 -0.24630849 -0.12762299 0.10113069 0.059767965 -0.05705215 -0.014391469
-0.1747303 0.2694209 0.010857088 0.06281441 -0.13855433 0.058819737 -0.11179085 0.16031262
-0.0033560174 0.0034356352 0.06816459 -0.04592662 0.21001393 0.04941171 0.015768383 0.071603276
-0.07077534 0.3202866 -0.16751716 -0.053400934 -0.017355047 0.18452777 0.27016172 -0.07124358
0.0308256 0.014798379 0.10110555 0.08091359 -0.06361078 0.027249562 -0.13453771 0.10966219
0.101253614 0.16916528 0.17325735 -0.14830028 0.050174493 0.1057533 -0.05078954 -0.07802797
0.0029104375 0.053524483 0.01350167 0.1717342 -0.072569296 0.068929695 0.015913088 -0.10547002
-0.14957657 -0.07076142 -0.31599948 -0.016517287 -0.012378637 -0.0353278 -0.11769454 -0.010528324
-0.00061705045 -0.17721228 -0.011765913 -0.13130954 0.33020705 -0.009282935 0.18760483 -0.056873832
-0.08470049 -0.059822757 -0.041496098 0.066044405 0.10367034 0.007632406 -0.18609972 -0.019068541
0.18145362 -0.03522661 0.096205905 -0.006516424 -0.012876827 -0.03935892 -0.0405016 -0.02792147
0.064236425 0.120380625 -0.08806072 0.07409729 0.053350583 -0.021209229 0.023050467 -0.0101591535
-0.008952277 -0.1567168 0.046847396 0.13343923 0.0973697 -0.03428025 0.06879655 0.12216228
0.044918068 0.15933292 0.01249231 0.054843973 -0.059905227 0.09845136 -0.16087578 -0.11975104
-0.14180426 -0.10683213 0.09028925 0.06720686 0.02054799 -0.0326262 -0.11963131 0.0266168
-0.08503745 0.029019471 0.016667446 0.053909075 -0.051730826 0.048610482 -0.09138236 -0.26500365
0.013838869 0.05939045 0.030731024 0.09706919 0.06647291 0.012028269 -0.010286791 -0.0476755
-0.13544777 0.12403246 -0.012952546 0.08066534 -0.13866413 0.022503464 0.13463096 0.05932496
0.017114421 -0.003375602 0.13713033 0.006746861 0.057643533 0.18704851 -0.83944905 0.040505033
0.07343608 -0.043055408 -0.02692709 -0.11332709 -0.012731687 0.1564976 0.019496564 0.12019929
0.16529548 -0.12568617 0.0046618 -0.02307752 0.12427485 0.02340192 0.08162708 -0.15773925
-0.23142396 -0.08224832 -0.026797947 0.04681058 -0.050616797 -0.037143774 0.16196962 0.09180425
0.14174405 -0.025265895 0.050831556 0.0021749225 0.06313586 -0.048524164 0.036297243 -0.021414677
0.065418966 0.010920062 -0.2464323 0.0823463 -0.017329475 0.040804632 0.068082325 0.04005536
-0.07613009 0.018514529 0.02396548 0.2049971 -0.010027199 -0.24480358 0.014672411 -0.06584607
0.103071496 0.07835974 -0.008270156 0.065802306 -0.049457923 -0.016117869 -0.16922136 -0.010001467
-0.015732177 0.0820178 0.047247704 0.10284624 -0.07203729 -0.14577967 0.027760448 0.013457216
-0.16673869 0.05806606 -0.18396936 0.0510614 -0.1235512 0.013711763 -0.09582646 0.06949541
-0.11884284 0.15170716 -0.09062013 -0.058609605 0.10259173 0.06249988 0.21268865 -0.19706021
00000000: f4ec c03d 4732 c93d 9c7d 03bd 8884 893d
00000010: 3b6e ecbd ed82 2a3b ca8a 9c3b 6836 0abe
00000020: 9cd7 a6bc 2b80 41bd 365d 1c3e 11de c73d
00000030: 9f86 3abd c43c 093c 89c8 35bd 49ce 943d
00000040: 0a44 253e 52ab 35bd 252b d7bb ebdd 0b3d
00000050: 962f e93b c03c e1bd 9ee6 053d 32f2 44be
00000060: 63cf ae3d 5ade d63d 4b38 7cbe 9aaf 02be
00000070: 9b1d cf3d 41cf 743d 84af 69bd 32ca 6bbc
00000080: 80ec 32be 89f1 893e ede1 313c d7a4 803d
00000090: 30e1 0dbe f7ec 703d 9af2 e4bd fe28 243e
000000a0: a1f0 5bbb 6528 613b e099 8b3d 8d1d 3cbd
000000b0: e40d 573e ef63 4a3d b22c 813c bda4 923d
000000c0: a9f2 90bd 9bfc a33e 9e89 2bbe f0ba 5abd
000000d0: 2c2c 8ebc d9f4 3c3e a352 8a3e 27e8 91bd
000000e0: f885 fc3c e674 723c 6d10 cf3d 06b6 a53d
000000f0: 5e46 82bd 793a df3c 41c4 09be 9296 e03d
00000100: 0e5e cf3d aa39 2d3e 606a 313e 07dc 17be
00000110: c583 4d3d 3095 d83d b108 50bd 21cd 9fbd
00000120: 0abd 3e3b 7d3c 5b3d 1c36 5d3c 17db 2f3e
00000130: 369f 94bd 032b 8d3d 2a5c 823c aa00 d8bd
00000140: 9a2a 19be 5deb 90bd afca a1be 434f 87bc
00000150: c4cf 4abc e2b3 10bd d609 f1bd fe7e 2cbc
00000160: 8ec1 21ba 2377 35be d1c5 40bc 0276 06be
00000170: e610 a93e 7417 18bc 7b1b 403e 89f4 68bd
00000180: 7377 adbd b508 75bd d0f7 29bd 4a42 873d
00000190: 1d51 d43d 4319 fa3b ed90 3ebe a135 9cbc
000001a0: face 393e c749 10bd 9a07 c53d ba87 d5bb
000001b0: 54f9 52bc d236 21bd 01e5 25bd 91bb e4bc
000001c0: 638e 833d 1e8a f63d 2e59 b4bd 52c0 973d
000001d0: 2486 5a3d fabe adbc 55d4 bc3c 9472 26bc
000001e0: 92ac 12bc 5e7a 20be 0ee3 3f3d 4ba4 083e
000001f0: c469 c73d 7369 0cbd 35e5 8c3d 3830 fa3d
00000200: 02fc 373d 2b28 233e 8cac 4c3c 13a4 603d
00000210: 2f5f 75bd dea0 c93d 9fbc 24be 0940 f5bd
00000220: 2335 11be ceca dabd 92e9 b83d c0a3 893d
00000230: 4254 a83c 0da3 05bd 4301 f5bd 7a0b da3c
00000240: 1d28 aebd 3eba ed3c 2b8a 883c c3cf 5c3d
00000250: b4e3 53bd c91b 473d ad26 bbbd 8fae 87be
00000260: 6cbc 623c 6743 733d a1bf fb3c 36cc c63d
00000270: f322 883d 3712 453c ee89 28bc 6347 43bd
00000280: d2b2 0abe bb04 fe3d ea36 54bc df33 a53d
00000290: f8fd 0dbe 2f59 b83c b3dc 093e bbfe 723d
000002a0: 8b33 8c3c 3439 5dbb e56b 0c3e c614 dd3b
000002b0: a01b 6c3d a589 3f3e 22e6 56bf 9be8 253d
000002c0: a865 963d de5a 30bd 3396 dcbc 0918 e8bd
000002d0: 9198 50bc e840 203e 42b7 9f3c 0c2b f63d
000002e0: 3843 293e e0b3 00be 03c2 983b 110d bdbc
000002f0: d083 fe3d 62b5 bf3c 192c a73d 6686 21be
00000300: 67fa 6cbe cf71 a8bd 5e87 dbbc 73bc 3f3d
00000310: 8f53 4fbd 1224 18bd 5ddb 253e de03 bc3d
00000320: 5a25 113e 6cfa cebc c034 503d 2589 0e3b
00000330: 604d 813d 46c1 46bd 6bac 143d d56d afbc
00000340: 61fa 853d 0fea 323c c058 7cbe 2da5 a83d
00000350: 8bf6 8dbc c222 273d bf6e 8b3d 1711 243d
00000360: 18ea 9bbd c8ab 973c 4153 c43c c3ea 513e
00000370: 1f49 24bc caad 7abe 8d64 703c 4eda 86bd
00000380: 2617 d33d 127b a03d 8c7f 07bc 5cc3 863d
00000390: 6494 4abd 9f09 84bc 5d48 2dbe 31dd 23bc
000003a0: c4e0 80bc f3f8 a73d cf86 413d 0da1 d23d
000003b0: 4988 93bd 4447 15be e169 e33c a87b 5c3c
000003c0: 8cbd 2abe add6 6d3d 7762 3cbe c225 513d
000003d0: 6908 fdbd 4da7 603c aa40 c4bd 9c53 8e3d
000003e0: e063 f3bd 1f59 1b3e 0c97 b9bd a010 70bd
000003f0: 9d1b d23d e0ff 7f3d 0ecb 593e 27ca 49be

h.0.attn.c_attn.weight f4 [12, 36]
-0.4738484 -0.26136586 -0.09780374 -0.34988934 0.22432406 -0.042920556 0.41869533 0.17441125
-0.18825532 0.18357256 -0.58064836 -0.022514876 -0.22914939 -0.12587623 0.4555458 -0.01916941
-0.1806049 -0.68907416 -0.5741346 0.338347 -0.26296216 -0.47467446 0.2309731 -0.046049144
-0.3117099 -0.3006401 0.07414408 0.16562136 -0.42417997 -0.055419784 0.07261707 0.19573204
0.14434159 -0.12724966 -0.25341117 -0.040299192 0.040769134 0.5209035 0.18691118 0.1300984
-0.18959504 -0.092377886 0.0012808202 0.20783572 -0.43057096 -0.35304716 0.09875064 -0.030605422
-0.09123873 -0.050313972 0.020102417 -0.2594058 0.080447525 0.42775974 0.30535248 -0.28258142
-0.16858493 -0.09416215 0.059242323 -0.27463162 0.04571413 0.09082538 0.27854255 0.22617729
-0.06038729 0.042970687 -0.16270868 0.080291174 0.39927822 -0.16422479 -0.096218556 0.10874876
0.19555429 0.1521601 -0.2583458 -0.06804918 0.0031220648 0.17639923 -0.2022252 0.33789825
0.21984926 0.51355326 0.030059308 0.0722905 0.042565715 0.28710526 -0.18892863 0.067142904
0.14703725 0.23465894 -0.2328579 0.30287555 0.030108085 -0.17565045 -0.0026711025 -0.08353611
0.23607787 -0.081527695 -0.38122785 0.013946535 0.5834495 0.22165745 0.10507297 0.44424838
-0.25413424 -0.7183765 0.23027676 -0.15549304 0.08650866 -0.07109594 0.33046648 0.056565065
-0.17287408 -0.14732139 0.44867828 0.1362445 0.27094626 0.3626385 -0.24154222 0.16275279
-0.20607026 -0.07385144 -0.1259505 -0.20770903 0.03523718 -0.12960619 -0.10964655 -0.10437148
0.03001729 0.16804323 0.23966055 0.33887595 -0.27419037 -0.08570241 -0.13605976 -0.03677988
-0.13615388 -0.08569643 -0.3841523 -0.11297464 -0.23404709 6.9055e-41 -0.06857626 -0.07687247
-0.41266006 0.42962468 0.23235983 -0.15510984 -0.20974016 0.1204929 0.05479998 0.49520642
0.12128965 0.07381506 0.14690594 -0.22334185 0.59773654 0.032124113 0.27491447 -0.5122595
0.30716875 0.17038032 -0.042579517 0.04791005 -0.25898647 -0.28435487 0.007249273 0.23162837
-0.36792845 -0.4134434 -0.4159233 -0.55002975 0.20198482 -0.09027462 0.41327733 -0.41509527
0.30722028 0.3100695 -0.15646206 -0.3971432 0.282195 0.44766906 -0.2557291 -0.21479563
-0.09057195 0.119597554 -0.017015697 0.26604596 0.254622 0.13019912 0.4627187 -0.10947346
-0.112185 -0.38433596 0.7445705 -0.15447548 -0.14270195 -0.75479317 -0.017203888 0.19053261
0.11917283 -0.2329167 0.22094677 -0.16120286 0.43890423 0.18127228 -0.47222525 -0.5271973
0.46931398 -0.09766524 -0.3254133 -0.2860555 0.31573611 -0.43450934 0.046175238 -0.10056828
-0.63615066 0.15079279 0.18377374 0.28229544 0.8330543 -0.7209233 -0.50321996 -0.046704855
-0.019611849 -0.12397717 -0.37159187 0.22289449 -0.10459006 -0.18247241 0.071778975 -0.086740926
-0.29631954 -0.55504787 0.37366757 -0.38073373 -0.6157526 -0.14169927 -0.1515037 0.106260106
0.51238686 -0.39798823 -0.057266824 0.16496229 0.4075656 -0.19934411 -0.6123339 0.09325492
0.88869435 -1.0145621 -0.368389 -0.016536081 -0.30852723 -0.16868405 -0.25440836 0.12217502
00000000: 429c f2be bfd1 85be 544d c8bd b224 b3be
00000010: 35b5 653e 77cd 2fbd 3c5f d63e dd98 323e
00000020: 01c6 40be 72fa 3b3e 5fa5 14bf 1e71 b8bc
00000030: 23a6 6abe b3e5 00be 4d3d e93e 2b09 9dbc
00000040: 7ef0 38be 2a67 30bf 7cfa 12bf d13b ad3e
00000050: faa2 86be 8808 f3be 3684 6c3e 079e 3cbd
00000060: 7198 9fbe 80ed 99be dad8 973d a598 293e
00000070: 1e2e d9be dbff 62bd 42b8 943d fb6d 483e
00000080: 48ce 133e bc4d 02be 1cbf 81be c410 25bd
00000090: 89fd 263d ef59 053f a565 3f3e 8438 053e
000000a0: 3425 42be 9e30 bdbd 32e1 a73a e3d2 543e
000000b0: cc73 dcbe 99c2 b4be c73d ca3d 39b8 fabc
000000c0: 5fdb babd 0616 4ebd d3ad a43c d6d0 84be
000000d0: acc1 a43d 5303 db3e 2957 9c3e 83ae 90be
000000e0: 87a1 2cbe 16d8 c0bd 14a8 723d 849c 8cbe
000000f0: bd3e 3b3d a802 ba3d 219d 8e3e 059b 673e
00000100: aa58 77bd 0802 303d 1b9d 26be b36f a43d
00000110: 326e cc3e 8b2a 28be 3c0e c5bd abb7 de3d
00000120: 623f 483e dbcf 1b3e e745 84be 5e5d 8bbd
00000130: 8e9b 4c3b 00a2 343e 1f14 4fbe 0001 ad3e
00000140: 2a20 613e 3a78 033f f03e f63c 0b0d 943d
00000150: 6359 2e3d 76ff 923e 8276 41be 3882 893d
00000160: ef90 163e 6f4a 703e 4d72 6ebe 8112 9b3e
00000170: 3ba5 f63c b6dd 33be aa0d 2fbb fb14 abbd
00000180: 66be 713e fef7 a6bd 4c30 c3be 0280 643c
00000190: f25c 153f 2cfa 623e 7f30 d73d 8674 e33e
000001a0: e21d 82be 86e7 37bf accd 6b3e 9139 1fbe
000001b0: 742b b13d c09a 91bd e732 a93e c5b0 673d
000001c0: e705 31be 6bdb 16be 29b9 e53e ae83 0b3e
000001d0: 78b9 8a3e c1ab b93e d856 77be aba8 263e
000001e0: 1504 53be 6c3f 97bd 2bf9 00be adb1 54be
000001f0: dc54 103d 7cb7 04be 5f8e e0bd b7c0 d5bd
00000200: d2e6 f53c 8613 2c3e 9369 753e 2681 ad3e
00000210: ae62 8cbe bf84 afbd 4053 0bbe 80a6 16bd
00000220: ec6b 0bbe 9c81 afbd 9caf c4be 405f e7bd
00000230: 0aaa 6fbe 7fc0 0000 b671 8cbd 506f 9dbd
00000240: 2e48 d3be c4f7 db3e bcef 6d3e 1dd5 1ebe
00000250: 20c6 56be fbc4 f63d f275 603d b28b fd3e
00000260: b566 f83d 5a2c 973d 836e 163e bab3 64be
00000270: 4305 193f 9394 033d 97c1 8c3e 7023 03bf
00000280: 3945 9d3e 2e78 2e3e dc67 2ebd 543d 443d
00000290: e099 84be f696 91be 4f8b ed3b fd2f 6d3e
000002a0: 1e61 bcbe daae d3be e6f3 d4be c0ce 0cbf
000002b0: 1cd5 4e3e e6e1 b8bd 1699 d33e 5e87 d4be
000002c0: fa4b 9d3e 6ec1 9e3e 9737 20be 5a56 cbbe
000002d0: dd7b 903e e134 e53e edee 82be 63f3 5bbe
000002e0: c97d b9bd 90ef f43d 8164 8bbc 2d37 883e
000002f0: d15d 823e eb52 053e 77e9 ec3e 9f33 e0bd
00000300: 40c1 e5bd afc7 c4be 2c9c 3e3f d22e 1ebe
00000310: 7620 12be 203a 41bf 2bef 8cbc fb1a 433e
00000320: e210 f43d b781 6ebe df3f 623e 5d12 25be
00000330: 0eb8 e03e 719f 393e 82c7 f1be 67f6 06bf
00000340: ec49 f03e b704 c8bd 929c a6be de75 92be
00000350: 2aa8 a13e 0278 debe 3f22 3d3d bef6 cdbd
00000360: c5da 22bf 6d69 1a3e 2f2f 3c3e 0789 903e
00000370: 0c43 553f 6e8e 38bf 06d3 00bf 974d 3fbd
00000380: 07a9 a0bc bee7 fdbd 4a41 bebe 743e 643e
00000390: 5033 d6bd 0cda 3abe db00 933d 3aa5 b1bd
000003a0: 32b7 97be 9e17 0ebf 5b51 bf3e 88ef c2be
000003b0: f6a1 1dbf 9d19 11be c923 1bbe e69e d93d
000003c0: c92b 033f 1dc5 cbbe 9e90 6abd e0eb 283e
000003d0: 70ac d03e dd20 4cbe eac1 1cbf 6ffc be3d
000003e0: 7981 633f 2cdd 81bf 7c9d bcbe ad76 87bc
000003f0: 48f7 9dbe 83bb 2cbe d041 82be e636 fa3d

h.0.ln_2.weight f4 [12]
0.13096605 0.20933688 0.20659243 1.2542268 1.2637722 1.2695314 0.09351045 0.07934456
0.22600909 1.3007793 0.23237723 1.1525323
00000000: f71b 063e 685c 563e f78c 533e 818a a03f
00000010: 4ac3 a13f 0180 a23f 6882 bf3d 677f a23d
00000020: ed6e 673e f07f a63f 4cf4 6d3e 2e86 933f

h.0.ln_2.bias f4 [12]
0.04247827 0.032626733 0.0044880672 0.015759379 0.005960179 -0.026806578 0.011713857 0.051371273
0.01321796 -0.0042403475 -0.011667933 0.0021937862
00000000: b2fd 2d3d 9ca3 053d a310 933b d019 813c
00000010: 9b4d c33b 7899 dbbc 7aeb 3f3c af6a 523d
00000020: 2490 583c 9df2 8abb dc2a 3fbc a0c5 0f3b

h.0.ln_1.weight f4 [12]
0.22322033 0.18195866 0.15343246 0.19168256 0.20361845 0.19481166 0.14670362 0.18654622
0.21432628 0.1955963 0.21182778 0.21534057
00000000: df93 643e 5f53 3a3e 661d 1d3e 6f48 443e
00000010: 5b81 503e b57c 473e 7939 163e f905 3f3e
00000020: 5978 5b3e 654a 483e 62e9 583e 3d82 5c3e
